<?xml version="1.0" ?>
<net batch="1" name="tf_classification_model" version="6">
	<layers>
		<layer id="0" name="inception_v3_input" precision="FP32" type="Input">
			<output>
				<port id="0">
					<dim>32</dim>
					<dim>3</dim>
					<dim>300</dim>
					<dim>300</dim>
				</port>
			</output>
		</layer>
		<layer id="1" name="inception_v3/conv2d_1/convolution" precision="FP32" type="Convolution">
			<data auto_pad="valid" dilations="1,1" group="1" kernel="3,3" output="32" pads_begin="0,0" pads_end="0,0" strides="2,2"/>
			<input>
				<port id="0">
					<dim>32</dim>
					<dim>3</dim>
					<dim>300</dim>
					<dim>300</dim>
				</port>
			</input>
			<output>
				<port id="3">
					<dim>32</dim>
					<dim>32</dim>
					<dim>149</dim>
					<dim>149</dim>
				</port>
			</output>
			<blobs>
				<weights offset="0" size="3456"/>
				<biases offset="3456" size="128"/>
			</blobs>
		</layer>
		<layer id="2" name="inception_v3/activation_1/Relu" precision="FP32" type="ReLU">
			<input>
				<port id="0">
					<dim>32</dim>
					<dim>32</dim>
					<dim>149</dim>
					<dim>149</dim>
				</port>
			</input>
			<output>
				<port id="1">
					<dim>32</dim>
					<dim>32</dim>
					<dim>149</dim>
					<dim>149</dim>
				</port>
			</output>
		</layer>
		<layer id="3" name="inception_v3/conv2d_2/convolution" precision="FP32" type="Convolution">
			<data auto_pad="valid" dilations="1,1" group="1" kernel="3,3" output="32" pads_begin="0,0" pads_end="0,0" strides="1,1"/>
			<input>
				<port id="0">
					<dim>32</dim>
					<dim>32</dim>
					<dim>149</dim>
					<dim>149</dim>
				</port>
			</input>
			<output>
				<port id="3">
					<dim>32</dim>
					<dim>32</dim>
					<dim>147</dim>
					<dim>147</dim>
				</port>
			</output>
			<blobs>
				<weights offset="3584" size="36864"/>
				<biases offset="40448" size="128"/>
			</blobs>
		</layer>
		<layer id="4" name="inception_v3/activation_2/Relu" precision="FP32" type="ReLU">
			<input>
				<port id="0">
					<dim>32</dim>
					<dim>32</dim>
					<dim>147</dim>
					<dim>147</dim>
				</port>
			</input>
			<output>
				<port id="1">
					<dim>32</dim>
					<dim>32</dim>
					<dim>147</dim>
					<dim>147</dim>
				</port>
			</output>
		</layer>
		<layer id="5" name="inception_v3/conv2d_3/convolution" precision="FP32" type="Convolution">
			<data auto_pad="same_upper" dilations="1,1" group="1" kernel="3,3" output="64" pads_begin="1,1" pads_end="1,1" strides="1,1"/>
			<input>
				<port id="0">
					<dim>32</dim>
					<dim>32</dim>
					<dim>147</dim>
					<dim>147</dim>
				</port>
			</input>
			<output>
				<port id="3">
					<dim>32</dim>
					<dim>64</dim>
					<dim>147</dim>
					<dim>147</dim>
				</port>
			</output>
			<blobs>
				<weights offset="40576" size="73728"/>
				<biases offset="114304" size="256"/>
			</blobs>
		</layer>
		<layer id="6" name="inception_v3/activation_3/Relu" precision="FP32" type="ReLU">
			<input>
				<port id="0">
					<dim>32</dim>
					<dim>64</dim>
					<dim>147</dim>
					<dim>147</dim>
				</port>
			</input>
			<output>
				<port id="1">
					<dim>32</dim>
					<dim>64</dim>
					<dim>147</dim>
					<dim>147</dim>
				</port>
			</output>
		</layer>
		<layer id="7" name="inception_v3/max_pooling2d_1/MaxPool" precision="FP32" type="Pooling">
			<data auto_pad="valid" exclude-pad="true" kernel="3,3" pads_begin="0,0" pads_end="0,0" pool-method="max" strides="2,2"/>
			<input>
				<port id="0">
					<dim>32</dim>
					<dim>64</dim>
					<dim>147</dim>
					<dim>147</dim>
				</port>
			</input>
			<output>
				<port id="1">
					<dim>32</dim>
					<dim>64</dim>
					<dim>73</dim>
					<dim>73</dim>
				</port>
			</output>
		</layer>
		<layer id="8" name="inception_v3/conv2d_4/convolution" precision="FP32" type="Convolution">
			<data auto_pad="valid" dilations="1,1" group="1" kernel="1,1" output="80" pads_begin="0,0" pads_end="0,0" strides="1,1"/>
			<input>
				<port id="0">
					<dim>32</dim>
					<dim>64</dim>
					<dim>73</dim>
					<dim>73</dim>
				</port>
			</input>
			<output>
				<port id="3">
					<dim>32</dim>
					<dim>80</dim>
					<dim>73</dim>
					<dim>73</dim>
				</port>
			</output>
			<blobs>
				<weights offset="114560" size="20480"/>
				<biases offset="135040" size="320"/>
			</blobs>
		</layer>
		<layer id="9" name="inception_v3/activation_4/Relu" precision="FP32" type="ReLU">
			<input>
				<port id="0">
					<dim>32</dim>
					<dim>80</dim>
					<dim>73</dim>
					<dim>73</dim>
				</port>
			</input>
			<output>
				<port id="1">
					<dim>32</dim>
					<dim>80</dim>
					<dim>73</dim>
					<dim>73</dim>
				</port>
			</output>
		</layer>
		<layer id="10" name="inception_v3/conv2d_5/convolution" precision="FP32" type="Convolution">
			<data auto_pad="valid" dilations="1,1" group="1" kernel="3,3" output="192" pads_begin="0,0" pads_end="0,0" strides="1,1"/>
			<input>
				<port id="0">
					<dim>32</dim>
					<dim>80</dim>
					<dim>73</dim>
					<dim>73</dim>
				</port>
			</input>
			<output>
				<port id="3">
					<dim>32</dim>
					<dim>192</dim>
					<dim>71</dim>
					<dim>71</dim>
				</port>
			</output>
			<blobs>
				<weights offset="135360" size="552960"/>
				<biases offset="688320" size="768"/>
			</blobs>
		</layer>
		<layer id="11" name="inception_v3/activation_5/Relu" precision="FP32" type="ReLU">
			<input>
				<port id="0">
					<dim>32</dim>
					<dim>192</dim>
					<dim>71</dim>
					<dim>71</dim>
				</port>
			</input>
			<output>
				<port id="1">
					<dim>32</dim>
					<dim>192</dim>
					<dim>71</dim>
					<dim>71</dim>
				</port>
			</output>
		</layer>
		<layer id="12" name="inception_v3/max_pooling2d_2/MaxPool" precision="FP32" type="Pooling">
			<data auto_pad="valid" exclude-pad="true" kernel="3,3" pads_begin="0,0" pads_end="0,0" pool-method="max" strides="2,2"/>
			<input>
				<port id="0">
					<dim>32</dim>
					<dim>192</dim>
					<dim>71</dim>
					<dim>71</dim>
				</port>
			</input>
			<output>
				<port id="1">
					<dim>32</dim>
					<dim>192</dim>
					<dim>35</dim>
					<dim>35</dim>
				</port>
			</output>
		</layer>
		<layer id="13" name="inception_v3/conv2d_6/convolution" precision="FP32" type="Convolution">
			<data auto_pad="same_upper" dilations="1,1" group="1" kernel="1,1" output="64" pads_begin="0,0" pads_end="0,0" strides="1,1"/>
			<input>
				<port id="0">
					<dim>32</dim>
					<dim>192</dim>
					<dim>35</dim>
					<dim>35</dim>
				</port>
			</input>
			<output>
				<port id="3">
					<dim>32</dim>
					<dim>64</dim>
					<dim>35</dim>
					<dim>35</dim>
				</port>
			</output>
			<blobs>
				<weights offset="689088" size="49152"/>
				<biases offset="738240" size="256"/>
			</blobs>
		</layer>
		<layer id="14" name="inception_v3/activation_6/Relu" precision="FP32" type="ReLU">
			<input>
				<port id="0">
					<dim>32</dim>
					<dim>64</dim>
					<dim>35</dim>
					<dim>35</dim>
				</port>
			</input>
			<output>
				<port id="1">
					<dim>32</dim>
					<dim>64</dim>
					<dim>35</dim>
					<dim>35</dim>
				</port>
			</output>
		</layer>
		<layer id="15" name="inception_v3/conv2d_7/convolution" precision="FP32" type="Convolution">
			<data auto_pad="same_upper" dilations="1,1" group="1" kernel="1,1" output="48" pads_begin="0,0" pads_end="0,0" strides="1,1"/>
			<input>
				<port id="0">
					<dim>32</dim>
					<dim>192</dim>
					<dim>35</dim>
					<dim>35</dim>
				</port>
			</input>
			<output>
				<port id="3">
					<dim>32</dim>
					<dim>48</dim>
					<dim>35</dim>
					<dim>35</dim>
				</port>
			</output>
			<blobs>
				<weights offset="738496" size="36864"/>
				<biases offset="775360" size="192"/>
			</blobs>
		</layer>
		<layer id="16" name="inception_v3/activation_7/Relu" precision="FP32" type="ReLU">
			<input>
				<port id="0">
					<dim>32</dim>
					<dim>48</dim>
					<dim>35</dim>
					<dim>35</dim>
				</port>
			</input>
			<output>
				<port id="1">
					<dim>32</dim>
					<dim>48</dim>
					<dim>35</dim>
					<dim>35</dim>
				</port>
			</output>
		</layer>
		<layer id="17" name="inception_v3/conv2d_8/convolution" precision="FP32" type="Convolution">
			<data auto_pad="same_upper" dilations="1,1" group="1" kernel="5,5" output="64" pads_begin="2,2" pads_end="2,2" strides="1,1"/>
			<input>
				<port id="0">
					<dim>32</dim>
					<dim>48</dim>
					<dim>35</dim>
					<dim>35</dim>
				</port>
			</input>
			<output>
				<port id="3">
					<dim>32</dim>
					<dim>64</dim>
					<dim>35</dim>
					<dim>35</dim>
				</port>
			</output>
			<blobs>
				<weights offset="775552" size="307200"/>
				<biases offset="1082752" size="256"/>
			</blobs>
		</layer>
		<layer id="18" name="inception_v3/activation_8/Relu" precision="FP32" type="ReLU">
			<input>
				<port id="0">
					<dim>32</dim>
					<dim>64</dim>
					<dim>35</dim>
					<dim>35</dim>
				</port>
			</input>
			<output>
				<port id="1">
					<dim>32</dim>
					<dim>64</dim>
					<dim>35</dim>
					<dim>35</dim>
				</port>
			</output>
		</layer>
		<layer id="19" name="inception_v3/conv2d_9/convolution" precision="FP32" type="Convolution">
			<data auto_pad="same_upper" dilations="1,1" group="1" kernel="1,1" output="64" pads_begin="0,0" pads_end="0,0" strides="1,1"/>
			<input>
				<port id="0">
					<dim>32</dim>
					<dim>192</dim>
					<dim>35</dim>
					<dim>35</dim>
				</port>
			</input>
			<output>
				<port id="3">
					<dim>32</dim>
					<dim>64</dim>
					<dim>35</dim>
					<dim>35</dim>
				</port>
			</output>
			<blobs>
				<weights offset="1083008" size="49152"/>
				<biases offset="1132160" size="256"/>
			</blobs>
		</layer>
		<layer id="20" name="inception_v3/activation_9/Relu" precision="FP32" type="ReLU">
			<input>
				<port id="0">
					<dim>32</dim>
					<dim>64</dim>
					<dim>35</dim>
					<dim>35</dim>
				</port>
			</input>
			<output>
				<port id="1">
					<dim>32</dim>
					<dim>64</dim>
					<dim>35</dim>
					<dim>35</dim>
				</port>
			</output>
		</layer>
		<layer id="21" name="inception_v3/conv2d_10/convolution" precision="FP32" type="Convolution">
			<data auto_pad="same_upper" dilations="1,1" group="1" kernel="3,3" output="96" pads_begin="1,1" pads_end="1,1" strides="1,1"/>
			<input>
				<port id="0">
					<dim>32</dim>
					<dim>64</dim>
					<dim>35</dim>
					<dim>35</dim>
				</port>
			</input>
			<output>
				<port id="3">
					<dim>32</dim>
					<dim>96</dim>
					<dim>35</dim>
					<dim>35</dim>
				</port>
			</output>
			<blobs>
				<weights offset="1132416" size="221184"/>
				<biases offset="1353600" size="384"/>
			</blobs>
		</layer>
		<layer id="22" name="inception_v3/activation_10/Relu" precision="FP32" type="ReLU">
			<input>
				<port id="0">
					<dim>32</dim>
					<dim>96</dim>
					<dim>35</dim>
					<dim>35</dim>
				</port>
			</input>
			<output>
				<port id="1">
					<dim>32</dim>
					<dim>96</dim>
					<dim>35</dim>
					<dim>35</dim>
				</port>
			</output>
		</layer>
		<layer id="23" name="inception_v3/conv2d_11/convolution" precision="FP32" type="Convolution">
			<data auto_pad="same_upper" dilations="1,1" group="1" kernel="3,3" output="96" pads_begin="1,1" pads_end="1,1" strides="1,1"/>
			<input>
				<port id="0">
					<dim>32</dim>
					<dim>96</dim>
					<dim>35</dim>
					<dim>35</dim>
				</port>
			</input>
			<output>
				<port id="3">
					<dim>32</dim>
					<dim>96</dim>
					<dim>35</dim>
					<dim>35</dim>
				</port>
			</output>
			<blobs>
				<weights offset="1353984" size="331776"/>
				<biases offset="1685760" size="384"/>
			</blobs>
		</layer>
		<layer id="24" name="inception_v3/activation_11/Relu" precision="FP32" type="ReLU">
			<input>
				<port id="0">
					<dim>32</dim>
					<dim>96</dim>
					<dim>35</dim>
					<dim>35</dim>
				</port>
			</input>
			<output>
				<port id="1">
					<dim>32</dim>
					<dim>96</dim>
					<dim>35</dim>
					<dim>35</dim>
				</port>
			</output>
		</layer>
		<layer id="25" name="inception_v3/average_pooling2d_1/AvgPool" precision="FP32" type="Pooling">
			<data auto_pad="same_upper" exclude-pad="true" kernel="3,3" pads_begin="1,1" pads_end="1,1" pool-method="avg" strides="1,1"/>
			<input>
				<port id="0">
					<dim>32</dim>
					<dim>192</dim>
					<dim>35</dim>
					<dim>35</dim>
				</port>
			</input>
			<output>
				<port id="1">
					<dim>32</dim>
					<dim>192</dim>
					<dim>35</dim>
					<dim>35</dim>
				</port>
			</output>
		</layer>
		<layer id="26" name="inception_v3/conv2d_12/convolution" precision="FP32" type="Convolution">
			<data auto_pad="same_upper" dilations="1,1" group="1" kernel="1,1" output="32" pads_begin="0,0" pads_end="0,0" strides="1,1"/>
			<input>
				<port id="0">
					<dim>32</dim>
					<dim>192</dim>
					<dim>35</dim>
					<dim>35</dim>
				</port>
			</input>
			<output>
				<port id="3">
					<dim>32</dim>
					<dim>32</dim>
					<dim>35</dim>
					<dim>35</dim>
				</port>
			</output>
			<blobs>
				<weights offset="1686144" size="24576"/>
				<biases offset="1710720" size="128"/>
			</blobs>
		</layer>
		<layer id="27" name="inception_v3/activation_12/Relu" precision="FP32" type="ReLU">
			<input>
				<port id="0">
					<dim>32</dim>
					<dim>32</dim>
					<dim>35</dim>
					<dim>35</dim>
				</port>
			</input>
			<output>
				<port id="1">
					<dim>32</dim>
					<dim>32</dim>
					<dim>35</dim>
					<dim>35</dim>
				</port>
			</output>
		</layer>
		<layer id="28" name="inception_v3/mixed0/concat" precision="FP32" type="Concat">
			<data axis="1"/>
			<input>
				<port id="0">
					<dim>32</dim>
					<dim>64</dim>
					<dim>35</dim>
					<dim>35</dim>
				</port>
				<port id="1">
					<dim>32</dim>
					<dim>64</dim>
					<dim>35</dim>
					<dim>35</dim>
				</port>
				<port id="2">
					<dim>32</dim>
					<dim>96</dim>
					<dim>35</dim>
					<dim>35</dim>
				</port>
				<port id="3">
					<dim>32</dim>
					<dim>32</dim>
					<dim>35</dim>
					<dim>35</dim>
				</port>
			</input>
			<output>
				<port id="4">
					<dim>32</dim>
					<dim>256</dim>
					<dim>35</dim>
					<dim>35</dim>
				</port>
			</output>
		</layer>
		<layer id="29" name="inception_v3/conv2d_13/convolution" precision="FP32" type="Convolution">
			<data auto_pad="same_upper" dilations="1,1" group="1" kernel="1,1" output="64" pads_begin="0,0" pads_end="0,0" strides="1,1"/>
			<input>
				<port id="0">
					<dim>32</dim>
					<dim>256</dim>
					<dim>35</dim>
					<dim>35</dim>
				</port>
			</input>
			<output>
				<port id="3">
					<dim>32</dim>
					<dim>64</dim>
					<dim>35</dim>
					<dim>35</dim>
				</port>
			</output>
			<blobs>
				<weights offset="1710848" size="65536"/>
				<biases offset="1776384" size="256"/>
			</blobs>
		</layer>
		<layer id="30" name="inception_v3/activation_13/Relu" precision="FP32" type="ReLU">
			<input>
				<port id="0">
					<dim>32</dim>
					<dim>64</dim>
					<dim>35</dim>
					<dim>35</dim>
				</port>
			</input>
			<output>
				<port id="1">
					<dim>32</dim>
					<dim>64</dim>
					<dim>35</dim>
					<dim>35</dim>
				</port>
			</output>
		</layer>
		<layer id="31" name="inception_v3/conv2d_14/convolution" precision="FP32" type="Convolution">
			<data auto_pad="same_upper" dilations="1,1" group="1" kernel="1,1" output="48" pads_begin="0,0" pads_end="0,0" strides="1,1"/>
			<input>
				<port id="0">
					<dim>32</dim>
					<dim>256</dim>
					<dim>35</dim>
					<dim>35</dim>
				</port>
			</input>
			<output>
				<port id="3">
					<dim>32</dim>
					<dim>48</dim>
					<dim>35</dim>
					<dim>35</dim>
				</port>
			</output>
			<blobs>
				<weights offset="1776640" size="49152"/>
				<biases offset="1825792" size="192"/>
			</blobs>
		</layer>
		<layer id="32" name="inception_v3/activation_14/Relu" precision="FP32" type="ReLU">
			<input>
				<port id="0">
					<dim>32</dim>
					<dim>48</dim>
					<dim>35</dim>
					<dim>35</dim>
				</port>
			</input>
			<output>
				<port id="1">
					<dim>32</dim>
					<dim>48</dim>
					<dim>35</dim>
					<dim>35</dim>
				</port>
			</output>
		</layer>
		<layer id="33" name="inception_v3/conv2d_15/convolution" precision="FP32" type="Convolution">
			<data auto_pad="same_upper" dilations="1,1" group="1" kernel="5,5" output="64" pads_begin="2,2" pads_end="2,2" strides="1,1"/>
			<input>
				<port id="0">
					<dim>32</dim>
					<dim>48</dim>
					<dim>35</dim>
					<dim>35</dim>
				</port>
			</input>
			<output>
				<port id="3">
					<dim>32</dim>
					<dim>64</dim>
					<dim>35</dim>
					<dim>35</dim>
				</port>
			</output>
			<blobs>
				<weights offset="1825984" size="307200"/>
				<biases offset="2133184" size="256"/>
			</blobs>
		</layer>
		<layer id="34" name="inception_v3/activation_15/Relu" precision="FP32" type="ReLU">
			<input>
				<port id="0">
					<dim>32</dim>
					<dim>64</dim>
					<dim>35</dim>
					<dim>35</dim>
				</port>
			</input>
			<output>
				<port id="1">
					<dim>32</dim>
					<dim>64</dim>
					<dim>35</dim>
					<dim>35</dim>
				</port>
			</output>
		</layer>
		<layer id="35" name="inception_v3/conv2d_16/convolution" precision="FP32" type="Convolution">
			<data auto_pad="same_upper" dilations="1,1" group="1" kernel="1,1" output="64" pads_begin="0,0" pads_end="0,0" strides="1,1"/>
			<input>
				<port id="0">
					<dim>32</dim>
					<dim>256</dim>
					<dim>35</dim>
					<dim>35</dim>
				</port>
			</input>
			<output>
				<port id="3">
					<dim>32</dim>
					<dim>64</dim>
					<dim>35</dim>
					<dim>35</dim>
				</port>
			</output>
			<blobs>
				<weights offset="2133440" size="65536"/>
				<biases offset="2198976" size="256"/>
			</blobs>
		</layer>
		<layer id="36" name="inception_v3/activation_16/Relu" precision="FP32" type="ReLU">
			<input>
				<port id="0">
					<dim>32</dim>
					<dim>64</dim>
					<dim>35</dim>
					<dim>35</dim>
				</port>
			</input>
			<output>
				<port id="1">
					<dim>32</dim>
					<dim>64</dim>
					<dim>35</dim>
					<dim>35</dim>
				</port>
			</output>
		</layer>
		<layer id="37" name="inception_v3/conv2d_17/convolution" precision="FP32" type="Convolution">
			<data auto_pad="same_upper" dilations="1,1" group="1" kernel="3,3" output="96" pads_begin="1,1" pads_end="1,1" strides="1,1"/>
			<input>
				<port id="0">
					<dim>32</dim>
					<dim>64</dim>
					<dim>35</dim>
					<dim>35</dim>
				</port>
			</input>
			<output>
				<port id="3">
					<dim>32</dim>
					<dim>96</dim>
					<dim>35</dim>
					<dim>35</dim>
				</port>
			</output>
			<blobs>
				<weights offset="2199232" size="221184"/>
				<biases offset="2420416" size="384"/>
			</blobs>
		</layer>
		<layer id="38" name="inception_v3/activation_17/Relu" precision="FP32" type="ReLU">
			<input>
				<port id="0">
					<dim>32</dim>
					<dim>96</dim>
					<dim>35</dim>
					<dim>35</dim>
				</port>
			</input>
			<output>
				<port id="1">
					<dim>32</dim>
					<dim>96</dim>
					<dim>35</dim>
					<dim>35</dim>
				</port>
			</output>
		</layer>
		<layer id="39" name="inception_v3/conv2d_18/convolution" precision="FP32" type="Convolution">
			<data auto_pad="same_upper" dilations="1,1" group="1" kernel="3,3" output="96" pads_begin="1,1" pads_end="1,1" strides="1,1"/>
			<input>
				<port id="0">
					<dim>32</dim>
					<dim>96</dim>
					<dim>35</dim>
					<dim>35</dim>
				</port>
			</input>
			<output>
				<port id="3">
					<dim>32</dim>
					<dim>96</dim>
					<dim>35</dim>
					<dim>35</dim>
				</port>
			</output>
			<blobs>
				<weights offset="2420800" size="331776"/>
				<biases offset="2752576" size="384"/>
			</blobs>
		</layer>
		<layer id="40" name="inception_v3/activation_18/Relu" precision="FP32" type="ReLU">
			<input>
				<port id="0">
					<dim>32</dim>
					<dim>96</dim>
					<dim>35</dim>
					<dim>35</dim>
				</port>
			</input>
			<output>
				<port id="1">
					<dim>32</dim>
					<dim>96</dim>
					<dim>35</dim>
					<dim>35</dim>
				</port>
			</output>
		</layer>
		<layer id="41" name="inception_v3/average_pooling2d_2/AvgPool" precision="FP32" type="Pooling">
			<data auto_pad="same_upper" exclude-pad="true" kernel="3,3" pads_begin="1,1" pads_end="1,1" pool-method="avg" strides="1,1"/>
			<input>
				<port id="0">
					<dim>32</dim>
					<dim>256</dim>
					<dim>35</dim>
					<dim>35</dim>
				</port>
			</input>
			<output>
				<port id="1">
					<dim>32</dim>
					<dim>256</dim>
					<dim>35</dim>
					<dim>35</dim>
				</port>
			</output>
		</layer>
		<layer id="42" name="inception_v3/conv2d_19/convolution" precision="FP32" type="Convolution">
			<data auto_pad="same_upper" dilations="1,1" group="1" kernel="1,1" output="64" pads_begin="0,0" pads_end="0,0" strides="1,1"/>
			<input>
				<port id="0">
					<dim>32</dim>
					<dim>256</dim>
					<dim>35</dim>
					<dim>35</dim>
				</port>
			</input>
			<output>
				<port id="3">
					<dim>32</dim>
					<dim>64</dim>
					<dim>35</dim>
					<dim>35</dim>
				</port>
			</output>
			<blobs>
				<weights offset="2752960" size="65536"/>
				<biases offset="2818496" size="256"/>
			</blobs>
		</layer>
		<layer id="43" name="inception_v3/activation_19/Relu" precision="FP32" type="ReLU">
			<input>
				<port id="0">
					<dim>32</dim>
					<dim>64</dim>
					<dim>35</dim>
					<dim>35</dim>
				</port>
			</input>
			<output>
				<port id="1">
					<dim>32</dim>
					<dim>64</dim>
					<dim>35</dim>
					<dim>35</dim>
				</port>
			</output>
		</layer>
		<layer id="44" name="inception_v3/mixed1/concat" precision="FP32" type="Concat">
			<data axis="1"/>
			<input>
				<port id="0">
					<dim>32</dim>
					<dim>64</dim>
					<dim>35</dim>
					<dim>35</dim>
				</port>
				<port id="1">
					<dim>32</dim>
					<dim>64</dim>
					<dim>35</dim>
					<dim>35</dim>
				</port>
				<port id="2">
					<dim>32</dim>
					<dim>96</dim>
					<dim>35</dim>
					<dim>35</dim>
				</port>
				<port id="3">
					<dim>32</dim>
					<dim>64</dim>
					<dim>35</dim>
					<dim>35</dim>
				</port>
			</input>
			<output>
				<port id="4">
					<dim>32</dim>
					<dim>288</dim>
					<dim>35</dim>
					<dim>35</dim>
				</port>
			</output>
		</layer>
		<layer id="45" name="inception_v3/conv2d_20/convolution" precision="FP32" type="Convolution">
			<data auto_pad="same_upper" dilations="1,1" group="1" kernel="1,1" output="64" pads_begin="0,0" pads_end="0,0" strides="1,1"/>
			<input>
				<port id="0">
					<dim>32</dim>
					<dim>288</dim>
					<dim>35</dim>
					<dim>35</dim>
				</port>
			</input>
			<output>
				<port id="3">
					<dim>32</dim>
					<dim>64</dim>
					<dim>35</dim>
					<dim>35</dim>
				</port>
			</output>
			<blobs>
				<weights offset="2818752" size="73728"/>
				<biases offset="2892480" size="256"/>
			</blobs>
		</layer>
		<layer id="46" name="inception_v3/activation_20/Relu" precision="FP32" type="ReLU">
			<input>
				<port id="0">
					<dim>32</dim>
					<dim>64</dim>
					<dim>35</dim>
					<dim>35</dim>
				</port>
			</input>
			<output>
				<port id="1">
					<dim>32</dim>
					<dim>64</dim>
					<dim>35</dim>
					<dim>35</dim>
				</port>
			</output>
		</layer>
		<layer id="47" name="inception_v3/conv2d_21/convolution" precision="FP32" type="Convolution">
			<data auto_pad="same_upper" dilations="1,1" group="1" kernel="1,1" output="48" pads_begin="0,0" pads_end="0,0" strides="1,1"/>
			<input>
				<port id="0">
					<dim>32</dim>
					<dim>288</dim>
					<dim>35</dim>
					<dim>35</dim>
				</port>
			</input>
			<output>
				<port id="3">
					<dim>32</dim>
					<dim>48</dim>
					<dim>35</dim>
					<dim>35</dim>
				</port>
			</output>
			<blobs>
				<weights offset="2892736" size="55296"/>
				<biases offset="2948032" size="192"/>
			</blobs>
		</layer>
		<layer id="48" name="inception_v3/activation_21/Relu" precision="FP32" type="ReLU">
			<input>
				<port id="0">
					<dim>32</dim>
					<dim>48</dim>
					<dim>35</dim>
					<dim>35</dim>
				</port>
			</input>
			<output>
				<port id="1">
					<dim>32</dim>
					<dim>48</dim>
					<dim>35</dim>
					<dim>35</dim>
				</port>
			</output>
		</layer>
		<layer id="49" name="inception_v3/conv2d_22/convolution" precision="FP32" type="Convolution">
			<data auto_pad="same_upper" dilations="1,1" group="1" kernel="5,5" output="64" pads_begin="2,2" pads_end="2,2" strides="1,1"/>
			<input>
				<port id="0">
					<dim>32</dim>
					<dim>48</dim>
					<dim>35</dim>
					<dim>35</dim>
				</port>
			</input>
			<output>
				<port id="3">
					<dim>32</dim>
					<dim>64</dim>
					<dim>35</dim>
					<dim>35</dim>
				</port>
			</output>
			<blobs>
				<weights offset="2948224" size="307200"/>
				<biases offset="3255424" size="256"/>
			</blobs>
		</layer>
		<layer id="50" name="inception_v3/activation_22/Relu" precision="FP32" type="ReLU">
			<input>
				<port id="0">
					<dim>32</dim>
					<dim>64</dim>
					<dim>35</dim>
					<dim>35</dim>
				</port>
			</input>
			<output>
				<port id="1">
					<dim>32</dim>
					<dim>64</dim>
					<dim>35</dim>
					<dim>35</dim>
				</port>
			</output>
		</layer>
		<layer id="51" name="inception_v3/conv2d_23/convolution" precision="FP32" type="Convolution">
			<data auto_pad="same_upper" dilations="1,1" group="1" kernel="1,1" output="64" pads_begin="0,0" pads_end="0,0" strides="1,1"/>
			<input>
				<port id="0">
					<dim>32</dim>
					<dim>288</dim>
					<dim>35</dim>
					<dim>35</dim>
				</port>
			</input>
			<output>
				<port id="3">
					<dim>32</dim>
					<dim>64</dim>
					<dim>35</dim>
					<dim>35</dim>
				</port>
			</output>
			<blobs>
				<weights offset="3255680" size="73728"/>
				<biases offset="3329408" size="256"/>
			</blobs>
		</layer>
		<layer id="52" name="inception_v3/activation_23/Relu" precision="FP32" type="ReLU">
			<input>
				<port id="0">
					<dim>32</dim>
					<dim>64</dim>
					<dim>35</dim>
					<dim>35</dim>
				</port>
			</input>
			<output>
				<port id="1">
					<dim>32</dim>
					<dim>64</dim>
					<dim>35</dim>
					<dim>35</dim>
				</port>
			</output>
		</layer>
		<layer id="53" name="inception_v3/conv2d_24/convolution" precision="FP32" type="Convolution">
			<data auto_pad="same_upper" dilations="1,1" group="1" kernel="3,3" output="96" pads_begin="1,1" pads_end="1,1" strides="1,1"/>
			<input>
				<port id="0">
					<dim>32</dim>
					<dim>64</dim>
					<dim>35</dim>
					<dim>35</dim>
				</port>
			</input>
			<output>
				<port id="3">
					<dim>32</dim>
					<dim>96</dim>
					<dim>35</dim>
					<dim>35</dim>
				</port>
			</output>
			<blobs>
				<weights offset="3329664" size="221184"/>
				<biases offset="3550848" size="384"/>
			</blobs>
		</layer>
		<layer id="54" name="inception_v3/activation_24/Relu" precision="FP32" type="ReLU">
			<input>
				<port id="0">
					<dim>32</dim>
					<dim>96</dim>
					<dim>35</dim>
					<dim>35</dim>
				</port>
			</input>
			<output>
				<port id="1">
					<dim>32</dim>
					<dim>96</dim>
					<dim>35</dim>
					<dim>35</dim>
				</port>
			</output>
		</layer>
		<layer id="55" name="inception_v3/conv2d_25/convolution" precision="FP32" type="Convolution">
			<data auto_pad="same_upper" dilations="1,1" group="1" kernel="3,3" output="96" pads_begin="1,1" pads_end="1,1" strides="1,1"/>
			<input>
				<port id="0">
					<dim>32</dim>
					<dim>96</dim>
					<dim>35</dim>
					<dim>35</dim>
				</port>
			</input>
			<output>
				<port id="3">
					<dim>32</dim>
					<dim>96</dim>
					<dim>35</dim>
					<dim>35</dim>
				</port>
			</output>
			<blobs>
				<weights offset="3551232" size="331776"/>
				<biases offset="3883008" size="384"/>
			</blobs>
		</layer>
		<layer id="56" name="inception_v3/activation_25/Relu" precision="FP32" type="ReLU">
			<input>
				<port id="0">
					<dim>32</dim>
					<dim>96</dim>
					<dim>35</dim>
					<dim>35</dim>
				</port>
			</input>
			<output>
				<port id="1">
					<dim>32</dim>
					<dim>96</dim>
					<dim>35</dim>
					<dim>35</dim>
				</port>
			</output>
		</layer>
		<layer id="57" name="inception_v3/average_pooling2d_3/AvgPool" precision="FP32" type="Pooling">
			<data auto_pad="same_upper" exclude-pad="true" kernel="3,3" pads_begin="1,1" pads_end="1,1" pool-method="avg" strides="1,1"/>
			<input>
				<port id="0">
					<dim>32</dim>
					<dim>288</dim>
					<dim>35</dim>
					<dim>35</dim>
				</port>
			</input>
			<output>
				<port id="1">
					<dim>32</dim>
					<dim>288</dim>
					<dim>35</dim>
					<dim>35</dim>
				</port>
			</output>
		</layer>
		<layer id="58" name="inception_v3/conv2d_26/convolution" precision="FP32" type="Convolution">
			<data auto_pad="same_upper" dilations="1,1" group="1" kernel="1,1" output="64" pads_begin="0,0" pads_end="0,0" strides="1,1"/>
			<input>
				<port id="0">
					<dim>32</dim>
					<dim>288</dim>
					<dim>35</dim>
					<dim>35</dim>
				</port>
			</input>
			<output>
				<port id="3">
					<dim>32</dim>
					<dim>64</dim>
					<dim>35</dim>
					<dim>35</dim>
				</port>
			</output>
			<blobs>
				<weights offset="3883392" size="73728"/>
				<biases offset="3957120" size="256"/>
			</blobs>
		</layer>
		<layer id="59" name="inception_v3/activation_26/Relu" precision="FP32" type="ReLU">
			<input>
				<port id="0">
					<dim>32</dim>
					<dim>64</dim>
					<dim>35</dim>
					<dim>35</dim>
				</port>
			</input>
			<output>
				<port id="1">
					<dim>32</dim>
					<dim>64</dim>
					<dim>35</dim>
					<dim>35</dim>
				</port>
			</output>
		</layer>
		<layer id="60" name="inception_v3/mixed2/concat" precision="FP32" type="Concat">
			<data axis="1"/>
			<input>
				<port id="0">
					<dim>32</dim>
					<dim>64</dim>
					<dim>35</dim>
					<dim>35</dim>
				</port>
				<port id="1">
					<dim>32</dim>
					<dim>64</dim>
					<dim>35</dim>
					<dim>35</dim>
				</port>
				<port id="2">
					<dim>32</dim>
					<dim>96</dim>
					<dim>35</dim>
					<dim>35</dim>
				</port>
				<port id="3">
					<dim>32</dim>
					<dim>64</dim>
					<dim>35</dim>
					<dim>35</dim>
				</port>
			</input>
			<output>
				<port id="4">
					<dim>32</dim>
					<dim>288</dim>
					<dim>35</dim>
					<dim>35</dim>
				</port>
			</output>
		</layer>
		<layer id="61" name="inception_v3/conv2d_27/convolution" precision="FP32" type="Convolution">
			<data auto_pad="valid" dilations="1,1" group="1" kernel="3,3" output="384" pads_begin="0,0" pads_end="0,0" strides="2,2"/>
			<input>
				<port id="0">
					<dim>32</dim>
					<dim>288</dim>
					<dim>35</dim>
					<dim>35</dim>
				</port>
			</input>
			<output>
				<port id="3">
					<dim>32</dim>
					<dim>384</dim>
					<dim>17</dim>
					<dim>17</dim>
				</port>
			</output>
			<blobs>
				<weights offset="3957376" size="3981312"/>
				<biases offset="7938688" size="1536"/>
			</blobs>
		</layer>
		<layer id="62" name="inception_v3/activation_27/Relu" precision="FP32" type="ReLU">
			<input>
				<port id="0">
					<dim>32</dim>
					<dim>384</dim>
					<dim>17</dim>
					<dim>17</dim>
				</port>
			</input>
			<output>
				<port id="1">
					<dim>32</dim>
					<dim>384</dim>
					<dim>17</dim>
					<dim>17</dim>
				</port>
			</output>
		</layer>
		<layer id="63" name="inception_v3/conv2d_28/convolution" precision="FP32" type="Convolution">
			<data auto_pad="same_upper" dilations="1,1" group="1" kernel="1,1" output="64" pads_begin="0,0" pads_end="0,0" strides="1,1"/>
			<input>
				<port id="0">
					<dim>32</dim>
					<dim>288</dim>
					<dim>35</dim>
					<dim>35</dim>
				</port>
			</input>
			<output>
				<port id="3">
					<dim>32</dim>
					<dim>64</dim>
					<dim>35</dim>
					<dim>35</dim>
				</port>
			</output>
			<blobs>
				<weights offset="7940224" size="73728"/>
				<biases offset="8013952" size="256"/>
			</blobs>
		</layer>
		<layer id="64" name="inception_v3/activation_28/Relu" precision="FP32" type="ReLU">
			<input>
				<port id="0">
					<dim>32</dim>
					<dim>64</dim>
					<dim>35</dim>
					<dim>35</dim>
				</port>
			</input>
			<output>
				<port id="1">
					<dim>32</dim>
					<dim>64</dim>
					<dim>35</dim>
					<dim>35</dim>
				</port>
			</output>
		</layer>
		<layer id="65" name="inception_v3/conv2d_29/convolution" precision="FP32" type="Convolution">
			<data auto_pad="same_upper" dilations="1,1" group="1" kernel="3,3" output="96" pads_begin="1,1" pads_end="1,1" strides="1,1"/>
			<input>
				<port id="0">
					<dim>32</dim>
					<dim>64</dim>
					<dim>35</dim>
					<dim>35</dim>
				</port>
			</input>
			<output>
				<port id="3">
					<dim>32</dim>
					<dim>96</dim>
					<dim>35</dim>
					<dim>35</dim>
				</port>
			</output>
			<blobs>
				<weights offset="8014208" size="221184"/>
				<biases offset="8235392" size="384"/>
			</blobs>
		</layer>
		<layer id="66" name="inception_v3/activation_29/Relu" precision="FP32" type="ReLU">
			<input>
				<port id="0">
					<dim>32</dim>
					<dim>96</dim>
					<dim>35</dim>
					<dim>35</dim>
				</port>
			</input>
			<output>
				<port id="1">
					<dim>32</dim>
					<dim>96</dim>
					<dim>35</dim>
					<dim>35</dim>
				</port>
			</output>
		</layer>
		<layer id="67" name="inception_v3/conv2d_30/convolution" precision="FP32" type="Convolution">
			<data auto_pad="valid" dilations="1,1" group="1" kernel="3,3" output="96" pads_begin="0,0" pads_end="0,0" strides="2,2"/>
			<input>
				<port id="0">
					<dim>32</dim>
					<dim>96</dim>
					<dim>35</dim>
					<dim>35</dim>
				</port>
			</input>
			<output>
				<port id="3">
					<dim>32</dim>
					<dim>96</dim>
					<dim>17</dim>
					<dim>17</dim>
				</port>
			</output>
			<blobs>
				<weights offset="8235776" size="331776"/>
				<biases offset="8567552" size="384"/>
			</blobs>
		</layer>
		<layer id="68" name="inception_v3/activation_30/Relu" precision="FP32" type="ReLU">
			<input>
				<port id="0">
					<dim>32</dim>
					<dim>96</dim>
					<dim>17</dim>
					<dim>17</dim>
				</port>
			</input>
			<output>
				<port id="1">
					<dim>32</dim>
					<dim>96</dim>
					<dim>17</dim>
					<dim>17</dim>
				</port>
			</output>
		</layer>
		<layer id="69" name="inception_v3/max_pooling2d_3/MaxPool" precision="FP32" type="Pooling">
			<data auto_pad="valid" exclude-pad="true" kernel="3,3" pads_begin="0,0" pads_end="0,0" pool-method="max" strides="2,2"/>
			<input>
				<port id="0">
					<dim>32</dim>
					<dim>288</dim>
					<dim>35</dim>
					<dim>35</dim>
				</port>
			</input>
			<output>
				<port id="1">
					<dim>32</dim>
					<dim>288</dim>
					<dim>17</dim>
					<dim>17</dim>
				</port>
			</output>
		</layer>
		<layer id="70" name="inception_v3/mixed3/concat" precision="FP32" type="Concat">
			<data axis="1"/>
			<input>
				<port id="0">
					<dim>32</dim>
					<dim>384</dim>
					<dim>17</dim>
					<dim>17</dim>
				</port>
				<port id="1">
					<dim>32</dim>
					<dim>96</dim>
					<dim>17</dim>
					<dim>17</dim>
				</port>
				<port id="2">
					<dim>32</dim>
					<dim>288</dim>
					<dim>17</dim>
					<dim>17</dim>
				</port>
			</input>
			<output>
				<port id="3">
					<dim>32</dim>
					<dim>768</dim>
					<dim>17</dim>
					<dim>17</dim>
				</port>
			</output>
		</layer>
		<layer id="71" name="inception_v3/conv2d_31/convolution" precision="FP32" type="Convolution">
			<data auto_pad="same_upper" dilations="1,1" group="1" kernel="1,1" output="192" pads_begin="0,0" pads_end="0,0" strides="1,1"/>
			<input>
				<port id="0">
					<dim>32</dim>
					<dim>768</dim>
					<dim>17</dim>
					<dim>17</dim>
				</port>
			</input>
			<output>
				<port id="3">
					<dim>32</dim>
					<dim>192</dim>
					<dim>17</dim>
					<dim>17</dim>
				</port>
			</output>
			<blobs>
				<weights offset="8567936" size="589824"/>
				<biases offset="9157760" size="768"/>
			</blobs>
		</layer>
		<layer id="72" name="inception_v3/activation_31/Relu" precision="FP32" type="ReLU">
			<input>
				<port id="0">
					<dim>32</dim>
					<dim>192</dim>
					<dim>17</dim>
					<dim>17</dim>
				</port>
			</input>
			<output>
				<port id="1">
					<dim>32</dim>
					<dim>192</dim>
					<dim>17</dim>
					<dim>17</dim>
				</port>
			</output>
		</layer>
		<layer id="73" name="inception_v3/conv2d_32/convolution" precision="FP32" type="Convolution">
			<data auto_pad="same_upper" dilations="1,1" group="1" kernel="1,1" output="128" pads_begin="0,0" pads_end="0,0" strides="1,1"/>
			<input>
				<port id="0">
					<dim>32</dim>
					<dim>768</dim>
					<dim>17</dim>
					<dim>17</dim>
				</port>
			</input>
			<output>
				<port id="3">
					<dim>32</dim>
					<dim>128</dim>
					<dim>17</dim>
					<dim>17</dim>
				</port>
			</output>
			<blobs>
				<weights offset="9158528" size="393216"/>
				<biases offset="9551744" size="512"/>
			</blobs>
		</layer>
		<layer id="74" name="inception_v3/activation_32/Relu" precision="FP32" type="ReLU">
			<input>
				<port id="0">
					<dim>32</dim>
					<dim>128</dim>
					<dim>17</dim>
					<dim>17</dim>
				</port>
			</input>
			<output>
				<port id="1">
					<dim>32</dim>
					<dim>128</dim>
					<dim>17</dim>
					<dim>17</dim>
				</port>
			</output>
		</layer>
		<layer id="75" name="inception_v3/conv2d_33/convolution" precision="FP32" type="Convolution">
			<data auto_pad="same_upper" dilations="1,1" group="1" kernel="1,7" output="128" pads_begin="0,3" pads_end="0,3" strides="1,1"/>
			<input>
				<port id="0">
					<dim>32</dim>
					<dim>128</dim>
					<dim>17</dim>
					<dim>17</dim>
				</port>
			</input>
			<output>
				<port id="3">
					<dim>32</dim>
					<dim>128</dim>
					<dim>17</dim>
					<dim>17</dim>
				</port>
			</output>
			<blobs>
				<weights offset="9552256" size="458752"/>
				<biases offset="10011008" size="512"/>
			</blobs>
		</layer>
		<layer id="76" name="inception_v3/activation_33/Relu" precision="FP32" type="ReLU">
			<input>
				<port id="0">
					<dim>32</dim>
					<dim>128</dim>
					<dim>17</dim>
					<dim>17</dim>
				</port>
			</input>
			<output>
				<port id="1">
					<dim>32</dim>
					<dim>128</dim>
					<dim>17</dim>
					<dim>17</dim>
				</port>
			</output>
		</layer>
		<layer id="77" name="inception_v3/conv2d_34/convolution" precision="FP32" type="Convolution">
			<data auto_pad="same_upper" dilations="1,1" group="1" kernel="7,1" output="192" pads_begin="3,0" pads_end="3,0" strides="1,1"/>
			<input>
				<port id="0">
					<dim>32</dim>
					<dim>128</dim>
					<dim>17</dim>
					<dim>17</dim>
				</port>
			</input>
			<output>
				<port id="3">
					<dim>32</dim>
					<dim>192</dim>
					<dim>17</dim>
					<dim>17</dim>
				</port>
			</output>
			<blobs>
				<weights offset="10011520" size="688128"/>
				<biases offset="10699648" size="768"/>
			</blobs>
		</layer>
		<layer id="78" name="inception_v3/activation_34/Relu" precision="FP32" type="ReLU">
			<input>
				<port id="0">
					<dim>32</dim>
					<dim>192</dim>
					<dim>17</dim>
					<dim>17</dim>
				</port>
			</input>
			<output>
				<port id="1">
					<dim>32</dim>
					<dim>192</dim>
					<dim>17</dim>
					<dim>17</dim>
				</port>
			</output>
		</layer>
		<layer id="79" name="inception_v3/conv2d_35/convolution" precision="FP32" type="Convolution">
			<data auto_pad="same_upper" dilations="1,1" group="1" kernel="1,1" output="128" pads_begin="0,0" pads_end="0,0" strides="1,1"/>
			<input>
				<port id="0">
					<dim>32</dim>
					<dim>768</dim>
					<dim>17</dim>
					<dim>17</dim>
				</port>
			</input>
			<output>
				<port id="3">
					<dim>32</dim>
					<dim>128</dim>
					<dim>17</dim>
					<dim>17</dim>
				</port>
			</output>
			<blobs>
				<weights offset="10700416" size="393216"/>
				<biases offset="11093632" size="512"/>
			</blobs>
		</layer>
		<layer id="80" name="inception_v3/activation_35/Relu" precision="FP32" type="ReLU">
			<input>
				<port id="0">
					<dim>32</dim>
					<dim>128</dim>
					<dim>17</dim>
					<dim>17</dim>
				</port>
			</input>
			<output>
				<port id="1">
					<dim>32</dim>
					<dim>128</dim>
					<dim>17</dim>
					<dim>17</dim>
				</port>
			</output>
		</layer>
		<layer id="81" name="inception_v3/conv2d_36/convolution" precision="FP32" type="Convolution">
			<data auto_pad="same_upper" dilations="1,1" group="1" kernel="7,1" output="128" pads_begin="3,0" pads_end="3,0" strides="1,1"/>
			<input>
				<port id="0">
					<dim>32</dim>
					<dim>128</dim>
					<dim>17</dim>
					<dim>17</dim>
				</port>
			</input>
			<output>
				<port id="3">
					<dim>32</dim>
					<dim>128</dim>
					<dim>17</dim>
					<dim>17</dim>
				</port>
			</output>
			<blobs>
				<weights offset="11094144" size="458752"/>
				<biases offset="11552896" size="512"/>
			</blobs>
		</layer>
		<layer id="82" name="inception_v3/activation_36/Relu" precision="FP32" type="ReLU">
			<input>
				<port id="0">
					<dim>32</dim>
					<dim>128</dim>
					<dim>17</dim>
					<dim>17</dim>
				</port>
			</input>
			<output>
				<port id="1">
					<dim>32</dim>
					<dim>128</dim>
					<dim>17</dim>
					<dim>17</dim>
				</port>
			</output>
		</layer>
		<layer id="83" name="inception_v3/conv2d_37/convolution" precision="FP32" type="Convolution">
			<data auto_pad="same_upper" dilations="1,1" group="1" kernel="1,7" output="128" pads_begin="0,3" pads_end="0,3" strides="1,1"/>
			<input>
				<port id="0">
					<dim>32</dim>
					<dim>128</dim>
					<dim>17</dim>
					<dim>17</dim>
				</port>
			</input>
			<output>
				<port id="3">
					<dim>32</dim>
					<dim>128</dim>
					<dim>17</dim>
					<dim>17</dim>
				</port>
			</output>
			<blobs>
				<weights offset="11553408" size="458752"/>
				<biases offset="12012160" size="512"/>
			</blobs>
		</layer>
		<layer id="84" name="inception_v3/activation_37/Relu" precision="FP32" type="ReLU">
			<input>
				<port id="0">
					<dim>32</dim>
					<dim>128</dim>
					<dim>17</dim>
					<dim>17</dim>
				</port>
			</input>
			<output>
				<port id="1">
					<dim>32</dim>
					<dim>128</dim>
					<dim>17</dim>
					<dim>17</dim>
				</port>
			</output>
		</layer>
		<layer id="85" name="inception_v3/conv2d_38/convolution" precision="FP32" type="Convolution">
			<data auto_pad="same_upper" dilations="1,1" group="1" kernel="7,1" output="128" pads_begin="3,0" pads_end="3,0" strides="1,1"/>
			<input>
				<port id="0">
					<dim>32</dim>
					<dim>128</dim>
					<dim>17</dim>
					<dim>17</dim>
				</port>
			</input>
			<output>
				<port id="3">
					<dim>32</dim>
					<dim>128</dim>
					<dim>17</dim>
					<dim>17</dim>
				</port>
			</output>
			<blobs>
				<weights offset="12012672" size="458752"/>
				<biases offset="12471424" size="512"/>
			</blobs>
		</layer>
		<layer id="86" name="inception_v3/activation_38/Relu" precision="FP32" type="ReLU">
			<input>
				<port id="0">
					<dim>32</dim>
					<dim>128</dim>
					<dim>17</dim>
					<dim>17</dim>
				</port>
			</input>
			<output>
				<port id="1">
					<dim>32</dim>
					<dim>128</dim>
					<dim>17</dim>
					<dim>17</dim>
				</port>
			</output>
		</layer>
		<layer id="87" name="inception_v3/conv2d_39/convolution" precision="FP32" type="Convolution">
			<data auto_pad="same_upper" dilations="1,1" group="1" kernel="1,7" output="192" pads_begin="0,3" pads_end="0,3" strides="1,1"/>
			<input>
				<port id="0">
					<dim>32</dim>
					<dim>128</dim>
					<dim>17</dim>
					<dim>17</dim>
				</port>
			</input>
			<output>
				<port id="3">
					<dim>32</dim>
					<dim>192</dim>
					<dim>17</dim>
					<dim>17</dim>
				</port>
			</output>
			<blobs>
				<weights offset="12471936" size="688128"/>
				<biases offset="13160064" size="768"/>
			</blobs>
		</layer>
		<layer id="88" name="inception_v3/activation_39/Relu" precision="FP32" type="ReLU">
			<input>
				<port id="0">
					<dim>32</dim>
					<dim>192</dim>
					<dim>17</dim>
					<dim>17</dim>
				</port>
			</input>
			<output>
				<port id="1">
					<dim>32</dim>
					<dim>192</dim>
					<dim>17</dim>
					<dim>17</dim>
				</port>
			</output>
		</layer>
		<layer id="89" name="inception_v3/average_pooling2d_4/AvgPool" precision="FP32" type="Pooling">
			<data auto_pad="same_upper" exclude-pad="true" kernel="3,3" pads_begin="1,1" pads_end="1,1" pool-method="avg" strides="1,1"/>
			<input>
				<port id="0">
					<dim>32</dim>
					<dim>768</dim>
					<dim>17</dim>
					<dim>17</dim>
				</port>
			</input>
			<output>
				<port id="1">
					<dim>32</dim>
					<dim>768</dim>
					<dim>17</dim>
					<dim>17</dim>
				</port>
			</output>
		</layer>
		<layer id="90" name="inception_v3/conv2d_40/convolution" precision="FP32" type="Convolution">
			<data auto_pad="same_upper" dilations="1,1" group="1" kernel="1,1" output="192" pads_begin="0,0" pads_end="0,0" strides="1,1"/>
			<input>
				<port id="0">
					<dim>32</dim>
					<dim>768</dim>
					<dim>17</dim>
					<dim>17</dim>
				</port>
			</input>
			<output>
				<port id="3">
					<dim>32</dim>
					<dim>192</dim>
					<dim>17</dim>
					<dim>17</dim>
				</port>
			</output>
			<blobs>
				<weights offset="13160832" size="589824"/>
				<biases offset="13750656" size="768"/>
			</blobs>
		</layer>
		<layer id="91" name="inception_v3/activation_40/Relu" precision="FP32" type="ReLU">
			<input>
				<port id="0">
					<dim>32</dim>
					<dim>192</dim>
					<dim>17</dim>
					<dim>17</dim>
				</port>
			</input>
			<output>
				<port id="1">
					<dim>32</dim>
					<dim>192</dim>
					<dim>17</dim>
					<dim>17</dim>
				</port>
			</output>
		</layer>
		<layer id="92" name="inception_v3/mixed4/concat" precision="FP32" type="Concat">
			<data axis="1"/>
			<input>
				<port id="0">
					<dim>32</dim>
					<dim>192</dim>
					<dim>17</dim>
					<dim>17</dim>
				</port>
				<port id="1">
					<dim>32</dim>
					<dim>192</dim>
					<dim>17</dim>
					<dim>17</dim>
				</port>
				<port id="2">
					<dim>32</dim>
					<dim>192</dim>
					<dim>17</dim>
					<dim>17</dim>
				</port>
				<port id="3">
					<dim>32</dim>
					<dim>192</dim>
					<dim>17</dim>
					<dim>17</dim>
				</port>
			</input>
			<output>
				<port id="4">
					<dim>32</dim>
					<dim>768</dim>
					<dim>17</dim>
					<dim>17</dim>
				</port>
			</output>
		</layer>
		<layer id="93" name="inception_v3/conv2d_41/convolution" precision="FP32" type="Convolution">
			<data auto_pad="same_upper" dilations="1,1" group="1" kernel="1,1" output="192" pads_begin="0,0" pads_end="0,0" strides="1,1"/>
			<input>
				<port id="0">
					<dim>32</dim>
					<dim>768</dim>
					<dim>17</dim>
					<dim>17</dim>
				</port>
			</input>
			<output>
				<port id="3">
					<dim>32</dim>
					<dim>192</dim>
					<dim>17</dim>
					<dim>17</dim>
				</port>
			</output>
			<blobs>
				<weights offset="13751424" size="589824"/>
				<biases offset="14341248" size="768"/>
			</blobs>
		</layer>
		<layer id="94" name="inception_v3/activation_41/Relu" precision="FP32" type="ReLU">
			<input>
				<port id="0">
					<dim>32</dim>
					<dim>192</dim>
					<dim>17</dim>
					<dim>17</dim>
				</port>
			</input>
			<output>
				<port id="1">
					<dim>32</dim>
					<dim>192</dim>
					<dim>17</dim>
					<dim>17</dim>
				</port>
			</output>
		</layer>
		<layer id="95" name="inception_v3/conv2d_42/convolution" precision="FP32" type="Convolution">
			<data auto_pad="same_upper" dilations="1,1" group="1" kernel="1,1" output="160" pads_begin="0,0" pads_end="0,0" strides="1,1"/>
			<input>
				<port id="0">
					<dim>32</dim>
					<dim>768</dim>
					<dim>17</dim>
					<dim>17</dim>
				</port>
			</input>
			<output>
				<port id="3">
					<dim>32</dim>
					<dim>160</dim>
					<dim>17</dim>
					<dim>17</dim>
				</port>
			</output>
			<blobs>
				<weights offset="14342016" size="491520"/>
				<biases offset="14833536" size="640"/>
			</blobs>
		</layer>
		<layer id="96" name="inception_v3/activation_42/Relu" precision="FP32" type="ReLU">
			<input>
				<port id="0">
					<dim>32</dim>
					<dim>160</dim>
					<dim>17</dim>
					<dim>17</dim>
				</port>
			</input>
			<output>
				<port id="1">
					<dim>32</dim>
					<dim>160</dim>
					<dim>17</dim>
					<dim>17</dim>
				</port>
			</output>
		</layer>
		<layer id="97" name="inception_v3/conv2d_43/convolution" precision="FP32" type="Convolution">
			<data auto_pad="same_upper" dilations="1,1" group="1" kernel="1,7" output="160" pads_begin="0,3" pads_end="0,3" strides="1,1"/>
			<input>
				<port id="0">
					<dim>32</dim>
					<dim>160</dim>
					<dim>17</dim>
					<dim>17</dim>
				</port>
			</input>
			<output>
				<port id="3">
					<dim>32</dim>
					<dim>160</dim>
					<dim>17</dim>
					<dim>17</dim>
				</port>
			</output>
			<blobs>
				<weights offset="14834176" size="716800"/>
				<biases offset="15550976" size="640"/>
			</blobs>
		</layer>
		<layer id="98" name="inception_v3/activation_43/Relu" precision="FP32" type="ReLU">
			<input>
				<port id="0">
					<dim>32</dim>
					<dim>160</dim>
					<dim>17</dim>
					<dim>17</dim>
				</port>
			</input>
			<output>
				<port id="1">
					<dim>32</dim>
					<dim>160</dim>
					<dim>17</dim>
					<dim>17</dim>
				</port>
			</output>
		</layer>
		<layer id="99" name="inception_v3/conv2d_44/convolution" precision="FP32" type="Convolution">
			<data auto_pad="same_upper" dilations="1,1" group="1" kernel="7,1" output="192" pads_begin="3,0" pads_end="3,0" strides="1,1"/>
			<input>
				<port id="0">
					<dim>32</dim>
					<dim>160</dim>
					<dim>17</dim>
					<dim>17</dim>
				</port>
			</input>
			<output>
				<port id="3">
					<dim>32</dim>
					<dim>192</dim>
					<dim>17</dim>
					<dim>17</dim>
				</port>
			</output>
			<blobs>
				<weights offset="15551616" size="860160"/>
				<biases offset="16411776" size="768"/>
			</blobs>
		</layer>
		<layer id="100" name="inception_v3/activation_44/Relu" precision="FP32" type="ReLU">
			<input>
				<port id="0">
					<dim>32</dim>
					<dim>192</dim>
					<dim>17</dim>
					<dim>17</dim>
				</port>
			</input>
			<output>
				<port id="1">
					<dim>32</dim>
					<dim>192</dim>
					<dim>17</dim>
					<dim>17</dim>
				</port>
			</output>
		</layer>
		<layer id="101" name="inception_v3/conv2d_45/convolution" precision="FP32" type="Convolution">
			<data auto_pad="same_upper" dilations="1,1" group="1" kernel="1,1" output="160" pads_begin="0,0" pads_end="0,0" strides="1,1"/>
			<input>
				<port id="0">
					<dim>32</dim>
					<dim>768</dim>
					<dim>17</dim>
					<dim>17</dim>
				</port>
			</input>
			<output>
				<port id="3">
					<dim>32</dim>
					<dim>160</dim>
					<dim>17</dim>
					<dim>17</dim>
				</port>
			</output>
			<blobs>
				<weights offset="16412544" size="491520"/>
				<biases offset="16904064" size="640"/>
			</blobs>
		</layer>
		<layer id="102" name="inception_v3/activation_45/Relu" precision="FP32" type="ReLU">
			<input>
				<port id="0">
					<dim>32</dim>
					<dim>160</dim>
					<dim>17</dim>
					<dim>17</dim>
				</port>
			</input>
			<output>
				<port id="1">
					<dim>32</dim>
					<dim>160</dim>
					<dim>17</dim>
					<dim>17</dim>
				</port>
			</output>
		</layer>
		<layer id="103" name="inception_v3/conv2d_46/convolution" precision="FP32" type="Convolution">
			<data auto_pad="same_upper" dilations="1,1" group="1" kernel="7,1" output="160" pads_begin="3,0" pads_end="3,0" strides="1,1"/>
			<input>
				<port id="0">
					<dim>32</dim>
					<dim>160</dim>
					<dim>17</dim>
					<dim>17</dim>
				</port>
			</input>
			<output>
				<port id="3">
					<dim>32</dim>
					<dim>160</dim>
					<dim>17</dim>
					<dim>17</dim>
				</port>
			</output>
			<blobs>
				<weights offset="16904704" size="716800"/>
				<biases offset="17621504" size="640"/>
			</blobs>
		</layer>
		<layer id="104" name="inception_v3/activation_46/Relu" precision="FP32" type="ReLU">
			<input>
				<port id="0">
					<dim>32</dim>
					<dim>160</dim>
					<dim>17</dim>
					<dim>17</dim>
				</port>
			</input>
			<output>
				<port id="1">
					<dim>32</dim>
					<dim>160</dim>
					<dim>17</dim>
					<dim>17</dim>
				</port>
			</output>
		</layer>
		<layer id="105" name="inception_v3/conv2d_47/convolution" precision="FP32" type="Convolution">
			<data auto_pad="same_upper" dilations="1,1" group="1" kernel="1,7" output="160" pads_begin="0,3" pads_end="0,3" strides="1,1"/>
			<input>
				<port id="0">
					<dim>32</dim>
					<dim>160</dim>
					<dim>17</dim>
					<dim>17</dim>
				</port>
			</input>
			<output>
				<port id="3">
					<dim>32</dim>
					<dim>160</dim>
					<dim>17</dim>
					<dim>17</dim>
				</port>
			</output>
			<blobs>
				<weights offset="17622144" size="716800"/>
				<biases offset="18338944" size="640"/>
			</blobs>
		</layer>
		<layer id="106" name="inception_v3/activation_47/Relu" precision="FP32" type="ReLU">
			<input>
				<port id="0">
					<dim>32</dim>
					<dim>160</dim>
					<dim>17</dim>
					<dim>17</dim>
				</port>
			</input>
			<output>
				<port id="1">
					<dim>32</dim>
					<dim>160</dim>
					<dim>17</dim>
					<dim>17</dim>
				</port>
			</output>
		</layer>
		<layer id="107" name="inception_v3/conv2d_48/convolution" precision="FP32" type="Convolution">
			<data auto_pad="same_upper" dilations="1,1" group="1" kernel="7,1" output="160" pads_begin="3,0" pads_end="3,0" strides="1,1"/>
			<input>
				<port id="0">
					<dim>32</dim>
					<dim>160</dim>
					<dim>17</dim>
					<dim>17</dim>
				</port>
			</input>
			<output>
				<port id="3">
					<dim>32</dim>
					<dim>160</dim>
					<dim>17</dim>
					<dim>17</dim>
				</port>
			</output>
			<blobs>
				<weights offset="18339584" size="716800"/>
				<biases offset="19056384" size="640"/>
			</blobs>
		</layer>
		<layer id="108" name="inception_v3/activation_48/Relu" precision="FP32" type="ReLU">
			<input>
				<port id="0">
					<dim>32</dim>
					<dim>160</dim>
					<dim>17</dim>
					<dim>17</dim>
				</port>
			</input>
			<output>
				<port id="1">
					<dim>32</dim>
					<dim>160</dim>
					<dim>17</dim>
					<dim>17</dim>
				</port>
			</output>
		</layer>
		<layer id="109" name="inception_v3/conv2d_49/convolution" precision="FP32" type="Convolution">
			<data auto_pad="same_upper" dilations="1,1" group="1" kernel="1,7" output="192" pads_begin="0,3" pads_end="0,3" strides="1,1"/>
			<input>
				<port id="0">
					<dim>32</dim>
					<dim>160</dim>
					<dim>17</dim>
					<dim>17</dim>
				</port>
			</input>
			<output>
				<port id="3">
					<dim>32</dim>
					<dim>192</dim>
					<dim>17</dim>
					<dim>17</dim>
				</port>
			</output>
			<blobs>
				<weights offset="19057024" size="860160"/>
				<biases offset="19917184" size="768"/>
			</blobs>
		</layer>
		<layer id="110" name="inception_v3/activation_49/Relu" precision="FP32" type="ReLU">
			<input>
				<port id="0">
					<dim>32</dim>
					<dim>192</dim>
					<dim>17</dim>
					<dim>17</dim>
				</port>
			</input>
			<output>
				<port id="1">
					<dim>32</dim>
					<dim>192</dim>
					<dim>17</dim>
					<dim>17</dim>
				</port>
			</output>
		</layer>
		<layer id="111" name="inception_v3/average_pooling2d_5/AvgPool" precision="FP32" type="Pooling">
			<data auto_pad="same_upper" exclude-pad="true" kernel="3,3" pads_begin="1,1" pads_end="1,1" pool-method="avg" strides="1,1"/>
			<input>
				<port id="0">
					<dim>32</dim>
					<dim>768</dim>
					<dim>17</dim>
					<dim>17</dim>
				</port>
			</input>
			<output>
				<port id="1">
					<dim>32</dim>
					<dim>768</dim>
					<dim>17</dim>
					<dim>17</dim>
				</port>
			</output>
		</layer>
		<layer id="112" name="inception_v3/conv2d_50/convolution" precision="FP32" type="Convolution">
			<data auto_pad="same_upper" dilations="1,1" group="1" kernel="1,1" output="192" pads_begin="0,0" pads_end="0,0" strides="1,1"/>
			<input>
				<port id="0">
					<dim>32</dim>
					<dim>768</dim>
					<dim>17</dim>
					<dim>17</dim>
				</port>
			</input>
			<output>
				<port id="3">
					<dim>32</dim>
					<dim>192</dim>
					<dim>17</dim>
					<dim>17</dim>
				</port>
			</output>
			<blobs>
				<weights offset="19917952" size="589824"/>
				<biases offset="20507776" size="768"/>
			</blobs>
		</layer>
		<layer id="113" name="inception_v3/activation_50/Relu" precision="FP32" type="ReLU">
			<input>
				<port id="0">
					<dim>32</dim>
					<dim>192</dim>
					<dim>17</dim>
					<dim>17</dim>
				</port>
			</input>
			<output>
				<port id="1">
					<dim>32</dim>
					<dim>192</dim>
					<dim>17</dim>
					<dim>17</dim>
				</port>
			</output>
		</layer>
		<layer id="114" name="inception_v3/mixed5/concat" precision="FP32" type="Concat">
			<data axis="1"/>
			<input>
				<port id="0">
					<dim>32</dim>
					<dim>192</dim>
					<dim>17</dim>
					<dim>17</dim>
				</port>
				<port id="1">
					<dim>32</dim>
					<dim>192</dim>
					<dim>17</dim>
					<dim>17</dim>
				</port>
				<port id="2">
					<dim>32</dim>
					<dim>192</dim>
					<dim>17</dim>
					<dim>17</dim>
				</port>
				<port id="3">
					<dim>32</dim>
					<dim>192</dim>
					<dim>17</dim>
					<dim>17</dim>
				</port>
			</input>
			<output>
				<port id="4">
					<dim>32</dim>
					<dim>768</dim>
					<dim>17</dim>
					<dim>17</dim>
				</port>
			</output>
		</layer>
		<layer id="115" name="inception_v3/conv2d_51/convolution" precision="FP32" type="Convolution">
			<data auto_pad="same_upper" dilations="1,1" group="1" kernel="1,1" output="192" pads_begin="0,0" pads_end="0,0" strides="1,1"/>
			<input>
				<port id="0">
					<dim>32</dim>
					<dim>768</dim>
					<dim>17</dim>
					<dim>17</dim>
				</port>
			</input>
			<output>
				<port id="3">
					<dim>32</dim>
					<dim>192</dim>
					<dim>17</dim>
					<dim>17</dim>
				</port>
			</output>
			<blobs>
				<weights offset="20508544" size="589824"/>
				<biases offset="21098368" size="768"/>
			</blobs>
		</layer>
		<layer id="116" name="inception_v3/activation_51/Relu" precision="FP32" type="ReLU">
			<input>
				<port id="0">
					<dim>32</dim>
					<dim>192</dim>
					<dim>17</dim>
					<dim>17</dim>
				</port>
			</input>
			<output>
				<port id="1">
					<dim>32</dim>
					<dim>192</dim>
					<dim>17</dim>
					<dim>17</dim>
				</port>
			</output>
		</layer>
		<layer id="117" name="inception_v3/conv2d_52/convolution" precision="FP32" type="Convolution">
			<data auto_pad="same_upper" dilations="1,1" group="1" kernel="1,1" output="160" pads_begin="0,0" pads_end="0,0" strides="1,1"/>
			<input>
				<port id="0">
					<dim>32</dim>
					<dim>768</dim>
					<dim>17</dim>
					<dim>17</dim>
				</port>
			</input>
			<output>
				<port id="3">
					<dim>32</dim>
					<dim>160</dim>
					<dim>17</dim>
					<dim>17</dim>
				</port>
			</output>
			<blobs>
				<weights offset="21099136" size="491520"/>
				<biases offset="21590656" size="640"/>
			</blobs>
		</layer>
		<layer id="118" name="inception_v3/activation_52/Relu" precision="FP32" type="ReLU">
			<input>
				<port id="0">
					<dim>32</dim>
					<dim>160</dim>
					<dim>17</dim>
					<dim>17</dim>
				</port>
			</input>
			<output>
				<port id="1">
					<dim>32</dim>
					<dim>160</dim>
					<dim>17</dim>
					<dim>17</dim>
				</port>
			</output>
		</layer>
		<layer id="119" name="inception_v3/conv2d_53/convolution" precision="FP32" type="Convolution">
			<data auto_pad="same_upper" dilations="1,1" group="1" kernel="1,7" output="160" pads_begin="0,3" pads_end="0,3" strides="1,1"/>
			<input>
				<port id="0">
					<dim>32</dim>
					<dim>160</dim>
					<dim>17</dim>
					<dim>17</dim>
				</port>
			</input>
			<output>
				<port id="3">
					<dim>32</dim>
					<dim>160</dim>
					<dim>17</dim>
					<dim>17</dim>
				</port>
			</output>
			<blobs>
				<weights offset="21591296" size="716800"/>
				<biases offset="22308096" size="640"/>
			</blobs>
		</layer>
		<layer id="120" name="inception_v3/activation_53/Relu" precision="FP32" type="ReLU">
			<input>
				<port id="0">
					<dim>32</dim>
					<dim>160</dim>
					<dim>17</dim>
					<dim>17</dim>
				</port>
			</input>
			<output>
				<port id="1">
					<dim>32</dim>
					<dim>160</dim>
					<dim>17</dim>
					<dim>17</dim>
				</port>
			</output>
		</layer>
		<layer id="121" name="inception_v3/conv2d_54/convolution" precision="FP32" type="Convolution">
			<data auto_pad="same_upper" dilations="1,1" group="1" kernel="7,1" output="192" pads_begin="3,0" pads_end="3,0" strides="1,1"/>
			<input>
				<port id="0">
					<dim>32</dim>
					<dim>160</dim>
					<dim>17</dim>
					<dim>17</dim>
				</port>
			</input>
			<output>
				<port id="3">
					<dim>32</dim>
					<dim>192</dim>
					<dim>17</dim>
					<dim>17</dim>
				</port>
			</output>
			<blobs>
				<weights offset="22308736" size="860160"/>
				<biases offset="23168896" size="768"/>
			</blobs>
		</layer>
		<layer id="122" name="inception_v3/activation_54/Relu" precision="FP32" type="ReLU">
			<input>
				<port id="0">
					<dim>32</dim>
					<dim>192</dim>
					<dim>17</dim>
					<dim>17</dim>
				</port>
			</input>
			<output>
				<port id="1">
					<dim>32</dim>
					<dim>192</dim>
					<dim>17</dim>
					<dim>17</dim>
				</port>
			</output>
		</layer>
		<layer id="123" name="inception_v3/conv2d_55/convolution" precision="FP32" type="Convolution">
			<data auto_pad="same_upper" dilations="1,1" group="1" kernel="1,1" output="160" pads_begin="0,0" pads_end="0,0" strides="1,1"/>
			<input>
				<port id="0">
					<dim>32</dim>
					<dim>768</dim>
					<dim>17</dim>
					<dim>17</dim>
				</port>
			</input>
			<output>
				<port id="3">
					<dim>32</dim>
					<dim>160</dim>
					<dim>17</dim>
					<dim>17</dim>
				</port>
			</output>
			<blobs>
				<weights offset="23169664" size="491520"/>
				<biases offset="23661184" size="640"/>
			</blobs>
		</layer>
		<layer id="124" name="inception_v3/activation_55/Relu" precision="FP32" type="ReLU">
			<input>
				<port id="0">
					<dim>32</dim>
					<dim>160</dim>
					<dim>17</dim>
					<dim>17</dim>
				</port>
			</input>
			<output>
				<port id="1">
					<dim>32</dim>
					<dim>160</dim>
					<dim>17</dim>
					<dim>17</dim>
				</port>
			</output>
		</layer>
		<layer id="125" name="inception_v3/conv2d_56/convolution" precision="FP32" type="Convolution">
			<data auto_pad="same_upper" dilations="1,1" group="1" kernel="7,1" output="160" pads_begin="3,0" pads_end="3,0" strides="1,1"/>
			<input>
				<port id="0">
					<dim>32</dim>
					<dim>160</dim>
					<dim>17</dim>
					<dim>17</dim>
				</port>
			</input>
			<output>
				<port id="3">
					<dim>32</dim>
					<dim>160</dim>
					<dim>17</dim>
					<dim>17</dim>
				</port>
			</output>
			<blobs>
				<weights offset="23661824" size="716800"/>
				<biases offset="24378624" size="640"/>
			</blobs>
		</layer>
		<layer id="126" name="inception_v3/activation_56/Relu" precision="FP32" type="ReLU">
			<input>
				<port id="0">
					<dim>32</dim>
					<dim>160</dim>
					<dim>17</dim>
					<dim>17</dim>
				</port>
			</input>
			<output>
				<port id="1">
					<dim>32</dim>
					<dim>160</dim>
					<dim>17</dim>
					<dim>17</dim>
				</port>
			</output>
		</layer>
		<layer id="127" name="inception_v3/conv2d_57/convolution" precision="FP32" type="Convolution">
			<data auto_pad="same_upper" dilations="1,1" group="1" kernel="1,7" output="160" pads_begin="0,3" pads_end="0,3" strides="1,1"/>
			<input>
				<port id="0">
					<dim>32</dim>
					<dim>160</dim>
					<dim>17</dim>
					<dim>17</dim>
				</port>
			</input>
			<output>
				<port id="3">
					<dim>32</dim>
					<dim>160</dim>
					<dim>17</dim>
					<dim>17</dim>
				</port>
			</output>
			<blobs>
				<weights offset="24379264" size="716800"/>
				<biases offset="25096064" size="640"/>
			</blobs>
		</layer>
		<layer id="128" name="inception_v3/activation_57/Relu" precision="FP32" type="ReLU">
			<input>
				<port id="0">
					<dim>32</dim>
					<dim>160</dim>
					<dim>17</dim>
					<dim>17</dim>
				</port>
			</input>
			<output>
				<port id="1">
					<dim>32</dim>
					<dim>160</dim>
					<dim>17</dim>
					<dim>17</dim>
				</port>
			</output>
		</layer>
		<layer id="129" name="inception_v3/conv2d_58/convolution" precision="FP32" type="Convolution">
			<data auto_pad="same_upper" dilations="1,1" group="1" kernel="7,1" output="160" pads_begin="3,0" pads_end="3,0" strides="1,1"/>
			<input>
				<port id="0">
					<dim>32</dim>
					<dim>160</dim>
					<dim>17</dim>
					<dim>17</dim>
				</port>
			</input>
			<output>
				<port id="3">
					<dim>32</dim>
					<dim>160</dim>
					<dim>17</dim>
					<dim>17</dim>
				</port>
			</output>
			<blobs>
				<weights offset="25096704" size="716800"/>
				<biases offset="25813504" size="640"/>
			</blobs>
		</layer>
		<layer id="130" name="inception_v3/activation_58/Relu" precision="FP32" type="ReLU">
			<input>
				<port id="0">
					<dim>32</dim>
					<dim>160</dim>
					<dim>17</dim>
					<dim>17</dim>
				</port>
			</input>
			<output>
				<port id="1">
					<dim>32</dim>
					<dim>160</dim>
					<dim>17</dim>
					<dim>17</dim>
				</port>
			</output>
		</layer>
		<layer id="131" name="inception_v3/conv2d_59/convolution" precision="FP32" type="Convolution">
			<data auto_pad="same_upper" dilations="1,1" group="1" kernel="1,7" output="192" pads_begin="0,3" pads_end="0,3" strides="1,1"/>
			<input>
				<port id="0">
					<dim>32</dim>
					<dim>160</dim>
					<dim>17</dim>
					<dim>17</dim>
				</port>
			</input>
			<output>
				<port id="3">
					<dim>32</dim>
					<dim>192</dim>
					<dim>17</dim>
					<dim>17</dim>
				</port>
			</output>
			<blobs>
				<weights offset="25814144" size="860160"/>
				<biases offset="26674304" size="768"/>
			</blobs>
		</layer>
		<layer id="132" name="inception_v3/activation_59/Relu" precision="FP32" type="ReLU">
			<input>
				<port id="0">
					<dim>32</dim>
					<dim>192</dim>
					<dim>17</dim>
					<dim>17</dim>
				</port>
			</input>
			<output>
				<port id="1">
					<dim>32</dim>
					<dim>192</dim>
					<dim>17</dim>
					<dim>17</dim>
				</port>
			</output>
		</layer>
		<layer id="133" name="inception_v3/average_pooling2d_6/AvgPool" precision="FP32" type="Pooling">
			<data auto_pad="same_upper" exclude-pad="true" kernel="3,3" pads_begin="1,1" pads_end="1,1" pool-method="avg" strides="1,1"/>
			<input>
				<port id="0">
					<dim>32</dim>
					<dim>768</dim>
					<dim>17</dim>
					<dim>17</dim>
				</port>
			</input>
			<output>
				<port id="1">
					<dim>32</dim>
					<dim>768</dim>
					<dim>17</dim>
					<dim>17</dim>
				</port>
			</output>
		</layer>
		<layer id="134" name="inception_v3/conv2d_60/convolution" precision="FP32" type="Convolution">
			<data auto_pad="same_upper" dilations="1,1" group="1" kernel="1,1" output="192" pads_begin="0,0" pads_end="0,0" strides="1,1"/>
			<input>
				<port id="0">
					<dim>32</dim>
					<dim>768</dim>
					<dim>17</dim>
					<dim>17</dim>
				</port>
			</input>
			<output>
				<port id="3">
					<dim>32</dim>
					<dim>192</dim>
					<dim>17</dim>
					<dim>17</dim>
				</port>
			</output>
			<blobs>
				<weights offset="26675072" size="589824"/>
				<biases offset="27264896" size="768"/>
			</blobs>
		</layer>
		<layer id="135" name="inception_v3/activation_60/Relu" precision="FP32" type="ReLU">
			<input>
				<port id="0">
					<dim>32</dim>
					<dim>192</dim>
					<dim>17</dim>
					<dim>17</dim>
				</port>
			</input>
			<output>
				<port id="1">
					<dim>32</dim>
					<dim>192</dim>
					<dim>17</dim>
					<dim>17</dim>
				</port>
			</output>
		</layer>
		<layer id="136" name="inception_v3/mixed6/concat" precision="FP32" type="Concat">
			<data axis="1"/>
			<input>
				<port id="0">
					<dim>32</dim>
					<dim>192</dim>
					<dim>17</dim>
					<dim>17</dim>
				</port>
				<port id="1">
					<dim>32</dim>
					<dim>192</dim>
					<dim>17</dim>
					<dim>17</dim>
				</port>
				<port id="2">
					<dim>32</dim>
					<dim>192</dim>
					<dim>17</dim>
					<dim>17</dim>
				</port>
				<port id="3">
					<dim>32</dim>
					<dim>192</dim>
					<dim>17</dim>
					<dim>17</dim>
				</port>
			</input>
			<output>
				<port id="4">
					<dim>32</dim>
					<dim>768</dim>
					<dim>17</dim>
					<dim>17</dim>
				</port>
			</output>
		</layer>
		<layer id="137" name="inception_v3/conv2d_61/convolution" precision="FP32" type="Convolution">
			<data auto_pad="same_upper" dilations="1,1" group="1" kernel="1,1" output="192" pads_begin="0,0" pads_end="0,0" strides="1,1"/>
			<input>
				<port id="0">
					<dim>32</dim>
					<dim>768</dim>
					<dim>17</dim>
					<dim>17</dim>
				</port>
			</input>
			<output>
				<port id="3">
					<dim>32</dim>
					<dim>192</dim>
					<dim>17</dim>
					<dim>17</dim>
				</port>
			</output>
			<blobs>
				<weights offset="27265664" size="589824"/>
				<biases offset="27855488" size="768"/>
			</blobs>
		</layer>
		<layer id="138" name="inception_v3/activation_61/Relu" precision="FP32" type="ReLU">
			<input>
				<port id="0">
					<dim>32</dim>
					<dim>192</dim>
					<dim>17</dim>
					<dim>17</dim>
				</port>
			</input>
			<output>
				<port id="1">
					<dim>32</dim>
					<dim>192</dim>
					<dim>17</dim>
					<dim>17</dim>
				</port>
			</output>
		</layer>
		<layer id="139" name="inception_v3/conv2d_62/convolution" precision="FP32" type="Convolution">
			<data auto_pad="same_upper" dilations="1,1" group="1" kernel="1,1" output="192" pads_begin="0,0" pads_end="0,0" strides="1,1"/>
			<input>
				<port id="0">
					<dim>32</dim>
					<dim>768</dim>
					<dim>17</dim>
					<dim>17</dim>
				</port>
			</input>
			<output>
				<port id="3">
					<dim>32</dim>
					<dim>192</dim>
					<dim>17</dim>
					<dim>17</dim>
				</port>
			</output>
			<blobs>
				<weights offset="27856256" size="589824"/>
				<biases offset="28446080" size="768"/>
			</blobs>
		</layer>
		<layer id="140" name="inception_v3/activation_62/Relu" precision="FP32" type="ReLU">
			<input>
				<port id="0">
					<dim>32</dim>
					<dim>192</dim>
					<dim>17</dim>
					<dim>17</dim>
				</port>
			</input>
			<output>
				<port id="1">
					<dim>32</dim>
					<dim>192</dim>
					<dim>17</dim>
					<dim>17</dim>
				</port>
			</output>
		</layer>
		<layer id="141" name="inception_v3/conv2d_63/convolution" precision="FP32" type="Convolution">
			<data auto_pad="same_upper" dilations="1,1" group="1" kernel="1,7" output="192" pads_begin="0,3" pads_end="0,3" strides="1,1"/>
			<input>
				<port id="0">
					<dim>32</dim>
					<dim>192</dim>
					<dim>17</dim>
					<dim>17</dim>
				</port>
			</input>
			<output>
				<port id="3">
					<dim>32</dim>
					<dim>192</dim>
					<dim>17</dim>
					<dim>17</dim>
				</port>
			</output>
			<blobs>
				<weights offset="28446848" size="1032192"/>
				<biases offset="29479040" size="768"/>
			</blobs>
		</layer>
		<layer id="142" name="inception_v3/activation_63/Relu" precision="FP32" type="ReLU">
			<input>
				<port id="0">
					<dim>32</dim>
					<dim>192</dim>
					<dim>17</dim>
					<dim>17</dim>
				</port>
			</input>
			<output>
				<port id="1">
					<dim>32</dim>
					<dim>192</dim>
					<dim>17</dim>
					<dim>17</dim>
				</port>
			</output>
		</layer>
		<layer id="143" name="inception_v3/conv2d_64/convolution" precision="FP32" type="Convolution">
			<data auto_pad="same_upper" dilations="1,1" group="1" kernel="7,1" output="192" pads_begin="3,0" pads_end="3,0" strides="1,1"/>
			<input>
				<port id="0">
					<dim>32</dim>
					<dim>192</dim>
					<dim>17</dim>
					<dim>17</dim>
				</port>
			</input>
			<output>
				<port id="3">
					<dim>32</dim>
					<dim>192</dim>
					<dim>17</dim>
					<dim>17</dim>
				</port>
			</output>
			<blobs>
				<weights offset="29479808" size="1032192"/>
				<biases offset="30512000" size="768"/>
			</blobs>
		</layer>
		<layer id="144" name="inception_v3/activation_64/Relu" precision="FP32" type="ReLU">
			<input>
				<port id="0">
					<dim>32</dim>
					<dim>192</dim>
					<dim>17</dim>
					<dim>17</dim>
				</port>
			</input>
			<output>
				<port id="1">
					<dim>32</dim>
					<dim>192</dim>
					<dim>17</dim>
					<dim>17</dim>
				</port>
			</output>
		</layer>
		<layer id="145" name="inception_v3/conv2d_65/convolution" precision="FP32" type="Convolution">
			<data auto_pad="same_upper" dilations="1,1" group="1" kernel="1,1" output="192" pads_begin="0,0" pads_end="0,0" strides="1,1"/>
			<input>
				<port id="0">
					<dim>32</dim>
					<dim>768</dim>
					<dim>17</dim>
					<dim>17</dim>
				</port>
			</input>
			<output>
				<port id="3">
					<dim>32</dim>
					<dim>192</dim>
					<dim>17</dim>
					<dim>17</dim>
				</port>
			</output>
			<blobs>
				<weights offset="30512768" size="589824"/>
				<biases offset="31102592" size="768"/>
			</blobs>
		</layer>
		<layer id="146" name="inception_v3/activation_65/Relu" precision="FP32" type="ReLU">
			<input>
				<port id="0">
					<dim>32</dim>
					<dim>192</dim>
					<dim>17</dim>
					<dim>17</dim>
				</port>
			</input>
			<output>
				<port id="1">
					<dim>32</dim>
					<dim>192</dim>
					<dim>17</dim>
					<dim>17</dim>
				</port>
			</output>
		</layer>
		<layer id="147" name="inception_v3/conv2d_66/convolution" precision="FP32" type="Convolution">
			<data auto_pad="same_upper" dilations="1,1" group="1" kernel="7,1" output="192" pads_begin="3,0" pads_end="3,0" strides="1,1"/>
			<input>
				<port id="0">
					<dim>32</dim>
					<dim>192</dim>
					<dim>17</dim>
					<dim>17</dim>
				</port>
			</input>
			<output>
				<port id="3">
					<dim>32</dim>
					<dim>192</dim>
					<dim>17</dim>
					<dim>17</dim>
				</port>
			</output>
			<blobs>
				<weights offset="31103360" size="1032192"/>
				<biases offset="32135552" size="768"/>
			</blobs>
		</layer>
		<layer id="148" name="inception_v3/activation_66/Relu" precision="FP32" type="ReLU">
			<input>
				<port id="0">
					<dim>32</dim>
					<dim>192</dim>
					<dim>17</dim>
					<dim>17</dim>
				</port>
			</input>
			<output>
				<port id="1">
					<dim>32</dim>
					<dim>192</dim>
					<dim>17</dim>
					<dim>17</dim>
				</port>
			</output>
		</layer>
		<layer id="149" name="inception_v3/conv2d_67/convolution" precision="FP32" type="Convolution">
			<data auto_pad="same_upper" dilations="1,1" group="1" kernel="1,7" output="192" pads_begin="0,3" pads_end="0,3" strides="1,1"/>
			<input>
				<port id="0">
					<dim>32</dim>
					<dim>192</dim>
					<dim>17</dim>
					<dim>17</dim>
				</port>
			</input>
			<output>
				<port id="3">
					<dim>32</dim>
					<dim>192</dim>
					<dim>17</dim>
					<dim>17</dim>
				</port>
			</output>
			<blobs>
				<weights offset="32136320" size="1032192"/>
				<biases offset="33168512" size="768"/>
			</blobs>
		</layer>
		<layer id="150" name="inception_v3/activation_67/Relu" precision="FP32" type="ReLU">
			<input>
				<port id="0">
					<dim>32</dim>
					<dim>192</dim>
					<dim>17</dim>
					<dim>17</dim>
				</port>
			</input>
			<output>
				<port id="1">
					<dim>32</dim>
					<dim>192</dim>
					<dim>17</dim>
					<dim>17</dim>
				</port>
			</output>
		</layer>
		<layer id="151" name="inception_v3/conv2d_68/convolution" precision="FP32" type="Convolution">
			<data auto_pad="same_upper" dilations="1,1" group="1" kernel="7,1" output="192" pads_begin="3,0" pads_end="3,0" strides="1,1"/>
			<input>
				<port id="0">
					<dim>32</dim>
					<dim>192</dim>
					<dim>17</dim>
					<dim>17</dim>
				</port>
			</input>
			<output>
				<port id="3">
					<dim>32</dim>
					<dim>192</dim>
					<dim>17</dim>
					<dim>17</dim>
				</port>
			</output>
			<blobs>
				<weights offset="33169280" size="1032192"/>
				<biases offset="34201472" size="768"/>
			</blobs>
		</layer>
		<layer id="152" name="inception_v3/activation_68/Relu" precision="FP32" type="ReLU">
			<input>
				<port id="0">
					<dim>32</dim>
					<dim>192</dim>
					<dim>17</dim>
					<dim>17</dim>
				</port>
			</input>
			<output>
				<port id="1">
					<dim>32</dim>
					<dim>192</dim>
					<dim>17</dim>
					<dim>17</dim>
				</port>
			</output>
		</layer>
		<layer id="153" name="inception_v3/conv2d_69/convolution" precision="FP32" type="Convolution">
			<data auto_pad="same_upper" dilations="1,1" group="1" kernel="1,7" output="192" pads_begin="0,3" pads_end="0,3" strides="1,1"/>
			<input>
				<port id="0">
					<dim>32</dim>
					<dim>192</dim>
					<dim>17</dim>
					<dim>17</dim>
				</port>
			</input>
			<output>
				<port id="3">
					<dim>32</dim>
					<dim>192</dim>
					<dim>17</dim>
					<dim>17</dim>
				</port>
			</output>
			<blobs>
				<weights offset="34202240" size="1032192"/>
				<biases offset="35234432" size="768"/>
			</blobs>
		</layer>
		<layer id="154" name="inception_v3/activation_69/Relu" precision="FP32" type="ReLU">
			<input>
				<port id="0">
					<dim>32</dim>
					<dim>192</dim>
					<dim>17</dim>
					<dim>17</dim>
				</port>
			</input>
			<output>
				<port id="1">
					<dim>32</dim>
					<dim>192</dim>
					<dim>17</dim>
					<dim>17</dim>
				</port>
			</output>
		</layer>
		<layer id="155" name="inception_v3/average_pooling2d_7/AvgPool" precision="FP32" type="Pooling">
			<data auto_pad="same_upper" exclude-pad="true" kernel="3,3" pads_begin="1,1" pads_end="1,1" pool-method="avg" strides="1,1"/>
			<input>
				<port id="0">
					<dim>32</dim>
					<dim>768</dim>
					<dim>17</dim>
					<dim>17</dim>
				</port>
			</input>
			<output>
				<port id="1">
					<dim>32</dim>
					<dim>768</dim>
					<dim>17</dim>
					<dim>17</dim>
				</port>
			</output>
		</layer>
		<layer id="156" name="inception_v3/conv2d_70/convolution" precision="FP32" type="Convolution">
			<data auto_pad="same_upper" dilations="1,1" group="1" kernel="1,1" output="192" pads_begin="0,0" pads_end="0,0" strides="1,1"/>
			<input>
				<port id="0">
					<dim>32</dim>
					<dim>768</dim>
					<dim>17</dim>
					<dim>17</dim>
				</port>
			</input>
			<output>
				<port id="3">
					<dim>32</dim>
					<dim>192</dim>
					<dim>17</dim>
					<dim>17</dim>
				</port>
			</output>
			<blobs>
				<weights offset="35235200" size="589824"/>
				<biases offset="35825024" size="768"/>
			</blobs>
		</layer>
		<layer id="157" name="inception_v3/activation_70/Relu" precision="FP32" type="ReLU">
			<input>
				<port id="0">
					<dim>32</dim>
					<dim>192</dim>
					<dim>17</dim>
					<dim>17</dim>
				</port>
			</input>
			<output>
				<port id="1">
					<dim>32</dim>
					<dim>192</dim>
					<dim>17</dim>
					<dim>17</dim>
				</port>
			</output>
		</layer>
		<layer id="158" name="inception_v3/mixed7/concat" precision="FP32" type="Concat">
			<data axis="1"/>
			<input>
				<port id="0">
					<dim>32</dim>
					<dim>192</dim>
					<dim>17</dim>
					<dim>17</dim>
				</port>
				<port id="1">
					<dim>32</dim>
					<dim>192</dim>
					<dim>17</dim>
					<dim>17</dim>
				</port>
				<port id="2">
					<dim>32</dim>
					<dim>192</dim>
					<dim>17</dim>
					<dim>17</dim>
				</port>
				<port id="3">
					<dim>32</dim>
					<dim>192</dim>
					<dim>17</dim>
					<dim>17</dim>
				</port>
			</input>
			<output>
				<port id="4">
					<dim>32</dim>
					<dim>768</dim>
					<dim>17</dim>
					<dim>17</dim>
				</port>
			</output>
		</layer>
		<layer id="159" name="inception_v3/conv2d_71/convolution" precision="FP32" type="Convolution">
			<data auto_pad="same_upper" dilations="1,1" group="1" kernel="1,1" output="192" pads_begin="0,0" pads_end="0,0" strides="1,1"/>
			<input>
				<port id="0">
					<dim>32</dim>
					<dim>768</dim>
					<dim>17</dim>
					<dim>17</dim>
				</port>
			</input>
			<output>
				<port id="3">
					<dim>32</dim>
					<dim>192</dim>
					<dim>17</dim>
					<dim>17</dim>
				</port>
			</output>
			<blobs>
				<weights offset="35825792" size="589824"/>
				<biases offset="36415616" size="768"/>
			</blobs>
		</layer>
		<layer id="160" name="inception_v3/activation_71/Relu" precision="FP32" type="ReLU">
			<input>
				<port id="0">
					<dim>32</dim>
					<dim>192</dim>
					<dim>17</dim>
					<dim>17</dim>
				</port>
			</input>
			<output>
				<port id="1">
					<dim>32</dim>
					<dim>192</dim>
					<dim>17</dim>
					<dim>17</dim>
				</port>
			</output>
		</layer>
		<layer id="161" name="inception_v3/conv2d_72/convolution" precision="FP32" type="Convolution">
			<data auto_pad="valid" dilations="1,1" group="1" kernel="3,3" output="320" pads_begin="0,0" pads_end="0,0" strides="2,2"/>
			<input>
				<port id="0">
					<dim>32</dim>
					<dim>192</dim>
					<dim>17</dim>
					<dim>17</dim>
				</port>
			</input>
			<output>
				<port id="3">
					<dim>32</dim>
					<dim>320</dim>
					<dim>8</dim>
					<dim>8</dim>
				</port>
			</output>
			<blobs>
				<weights offset="36416384" size="2211840"/>
				<biases offset="38628224" size="1280"/>
			</blobs>
		</layer>
		<layer id="162" name="inception_v3/activation_72/Relu" precision="FP32" type="ReLU">
			<input>
				<port id="0">
					<dim>32</dim>
					<dim>320</dim>
					<dim>8</dim>
					<dim>8</dim>
				</port>
			</input>
			<output>
				<port id="1">
					<dim>32</dim>
					<dim>320</dim>
					<dim>8</dim>
					<dim>8</dim>
				</port>
			</output>
		</layer>
		<layer id="163" name="inception_v3/conv2d_73/convolution" precision="FP32" type="Convolution">
			<data auto_pad="same_upper" dilations="1,1" group="1" kernel="1,1" output="192" pads_begin="0,0" pads_end="0,0" strides="1,1"/>
			<input>
				<port id="0">
					<dim>32</dim>
					<dim>768</dim>
					<dim>17</dim>
					<dim>17</dim>
				</port>
			</input>
			<output>
				<port id="3">
					<dim>32</dim>
					<dim>192</dim>
					<dim>17</dim>
					<dim>17</dim>
				</port>
			</output>
			<blobs>
				<weights offset="38629504" size="589824"/>
				<biases offset="39219328" size="768"/>
			</blobs>
		</layer>
		<layer id="164" name="inception_v3/activation_73/Relu" precision="FP32" type="ReLU">
			<input>
				<port id="0">
					<dim>32</dim>
					<dim>192</dim>
					<dim>17</dim>
					<dim>17</dim>
				</port>
			</input>
			<output>
				<port id="1">
					<dim>32</dim>
					<dim>192</dim>
					<dim>17</dim>
					<dim>17</dim>
				</port>
			</output>
		</layer>
		<layer id="165" name="inception_v3/conv2d_74/convolution" precision="FP32" type="Convolution">
			<data auto_pad="same_upper" dilations="1,1" group="1" kernel="1,7" output="192" pads_begin="0,3" pads_end="0,3" strides="1,1"/>
			<input>
				<port id="0">
					<dim>32</dim>
					<dim>192</dim>
					<dim>17</dim>
					<dim>17</dim>
				</port>
			</input>
			<output>
				<port id="3">
					<dim>32</dim>
					<dim>192</dim>
					<dim>17</dim>
					<dim>17</dim>
				</port>
			</output>
			<blobs>
				<weights offset="39220096" size="1032192"/>
				<biases offset="40252288" size="768"/>
			</blobs>
		</layer>
		<layer id="166" name="inception_v3/activation_74/Relu" precision="FP32" type="ReLU">
			<input>
				<port id="0">
					<dim>32</dim>
					<dim>192</dim>
					<dim>17</dim>
					<dim>17</dim>
				</port>
			</input>
			<output>
				<port id="1">
					<dim>32</dim>
					<dim>192</dim>
					<dim>17</dim>
					<dim>17</dim>
				</port>
			</output>
		</layer>
		<layer id="167" name="inception_v3/conv2d_75/convolution" precision="FP32" type="Convolution">
			<data auto_pad="same_upper" dilations="1,1" group="1" kernel="7,1" output="192" pads_begin="3,0" pads_end="3,0" strides="1,1"/>
			<input>
				<port id="0">
					<dim>32</dim>
					<dim>192</dim>
					<dim>17</dim>
					<dim>17</dim>
				</port>
			</input>
			<output>
				<port id="3">
					<dim>32</dim>
					<dim>192</dim>
					<dim>17</dim>
					<dim>17</dim>
				</port>
			</output>
			<blobs>
				<weights offset="40253056" size="1032192"/>
				<biases offset="41285248" size="768"/>
			</blobs>
		</layer>
		<layer id="168" name="inception_v3/activation_75/Relu" precision="FP32" type="ReLU">
			<input>
				<port id="0">
					<dim>32</dim>
					<dim>192</dim>
					<dim>17</dim>
					<dim>17</dim>
				</port>
			</input>
			<output>
				<port id="1">
					<dim>32</dim>
					<dim>192</dim>
					<dim>17</dim>
					<dim>17</dim>
				</port>
			</output>
		</layer>
		<layer id="169" name="inception_v3/conv2d_76/convolution" precision="FP32" type="Convolution">
			<data auto_pad="valid" dilations="1,1" group="1" kernel="3,3" output="192" pads_begin="0,0" pads_end="0,0" strides="2,2"/>
			<input>
				<port id="0">
					<dim>32</dim>
					<dim>192</dim>
					<dim>17</dim>
					<dim>17</dim>
				</port>
			</input>
			<output>
				<port id="3">
					<dim>32</dim>
					<dim>192</dim>
					<dim>8</dim>
					<dim>8</dim>
				</port>
			</output>
			<blobs>
				<weights offset="41286016" size="1327104"/>
				<biases offset="42613120" size="768"/>
			</blobs>
		</layer>
		<layer id="170" name="inception_v3/activation_76/Relu" precision="FP32" type="ReLU">
			<input>
				<port id="0">
					<dim>32</dim>
					<dim>192</dim>
					<dim>8</dim>
					<dim>8</dim>
				</port>
			</input>
			<output>
				<port id="1">
					<dim>32</dim>
					<dim>192</dim>
					<dim>8</dim>
					<dim>8</dim>
				</port>
			</output>
		</layer>
		<layer id="171" name="inception_v3/max_pooling2d_4/MaxPool" precision="FP32" type="Pooling">
			<data auto_pad="valid" exclude-pad="true" kernel="3,3" pads_begin="0,0" pads_end="0,0" pool-method="max" strides="2,2"/>
			<input>
				<port id="0">
					<dim>32</dim>
					<dim>768</dim>
					<dim>17</dim>
					<dim>17</dim>
				</port>
			</input>
			<output>
				<port id="1">
					<dim>32</dim>
					<dim>768</dim>
					<dim>8</dim>
					<dim>8</dim>
				</port>
			</output>
		</layer>
		<layer id="172" name="inception_v3/mixed8/concat" precision="FP32" type="Concat">
			<data axis="1"/>
			<input>
				<port id="0">
					<dim>32</dim>
					<dim>320</dim>
					<dim>8</dim>
					<dim>8</dim>
				</port>
				<port id="1">
					<dim>32</dim>
					<dim>192</dim>
					<dim>8</dim>
					<dim>8</dim>
				</port>
				<port id="2">
					<dim>32</dim>
					<dim>768</dim>
					<dim>8</dim>
					<dim>8</dim>
				</port>
			</input>
			<output>
				<port id="3">
					<dim>32</dim>
					<dim>1280</dim>
					<dim>8</dim>
					<dim>8</dim>
				</port>
			</output>
		</layer>
		<layer id="173" name="inception_v3/conv2d_77/convolution" precision="FP32" type="Convolution">
			<data auto_pad="same_upper" dilations="1,1" group="1" kernel="1,1" output="320" pads_begin="0,0" pads_end="0,0" strides="1,1"/>
			<input>
				<port id="0">
					<dim>32</dim>
					<dim>1280</dim>
					<dim>8</dim>
					<dim>8</dim>
				</port>
			</input>
			<output>
				<port id="3">
					<dim>32</dim>
					<dim>320</dim>
					<dim>8</dim>
					<dim>8</dim>
				</port>
			</output>
			<blobs>
				<weights offset="42613888" size="1638400"/>
				<biases offset="44252288" size="1280"/>
			</blobs>
		</layer>
		<layer id="174" name="inception_v3/activation_77/Relu" precision="FP32" type="ReLU">
			<input>
				<port id="0">
					<dim>32</dim>
					<dim>320</dim>
					<dim>8</dim>
					<dim>8</dim>
				</port>
			</input>
			<output>
				<port id="1">
					<dim>32</dim>
					<dim>320</dim>
					<dim>8</dim>
					<dim>8</dim>
				</port>
			</output>
		</layer>
		<layer id="175" name="inception_v3/conv2d_78/convolution" precision="FP32" type="Convolution">
			<data auto_pad="same_upper" dilations="1,1" group="1" kernel="1,1" output="384" pads_begin="0,0" pads_end="0,0" strides="1,1"/>
			<input>
				<port id="0">
					<dim>32</dim>
					<dim>1280</dim>
					<dim>8</dim>
					<dim>8</dim>
				</port>
			</input>
			<output>
				<port id="3">
					<dim>32</dim>
					<dim>384</dim>
					<dim>8</dim>
					<dim>8</dim>
				</port>
			</output>
			<blobs>
				<weights offset="44253568" size="1966080"/>
				<biases offset="46219648" size="1536"/>
			</blobs>
		</layer>
		<layer id="176" name="inception_v3/activation_78/Relu" precision="FP32" type="ReLU">
			<input>
				<port id="0">
					<dim>32</dim>
					<dim>384</dim>
					<dim>8</dim>
					<dim>8</dim>
				</port>
			</input>
			<output>
				<port id="1">
					<dim>32</dim>
					<dim>384</dim>
					<dim>8</dim>
					<dim>8</dim>
				</port>
			</output>
		</layer>
		<layer id="177" name="inception_v3/conv2d_79/convolution" precision="FP32" type="Convolution">
			<data auto_pad="same_upper" dilations="1,1" group="1" kernel="1,3" output="384" pads_begin="0,1" pads_end="0,1" strides="1,1"/>
			<input>
				<port id="0">
					<dim>32</dim>
					<dim>384</dim>
					<dim>8</dim>
					<dim>8</dim>
				</port>
			</input>
			<output>
				<port id="3">
					<dim>32</dim>
					<dim>384</dim>
					<dim>8</dim>
					<dim>8</dim>
				</port>
			</output>
			<blobs>
				<weights offset="46221184" size="1769472"/>
				<biases offset="47990656" size="1536"/>
			</blobs>
		</layer>
		<layer id="178" name="inception_v3/activation_79/Relu" precision="FP32" type="ReLU">
			<input>
				<port id="0">
					<dim>32</dim>
					<dim>384</dim>
					<dim>8</dim>
					<dim>8</dim>
				</port>
			</input>
			<output>
				<port id="1">
					<dim>32</dim>
					<dim>384</dim>
					<dim>8</dim>
					<dim>8</dim>
				</port>
			</output>
		</layer>
		<layer id="179" name="inception_v3/conv2d_80/convolution" precision="FP32" type="Convolution">
			<data auto_pad="same_upper" dilations="1,1" group="1" kernel="3,1" output="384" pads_begin="1,0" pads_end="1,0" strides="1,1"/>
			<input>
				<port id="0">
					<dim>32</dim>
					<dim>384</dim>
					<dim>8</dim>
					<dim>8</dim>
				</port>
			</input>
			<output>
				<port id="3">
					<dim>32</dim>
					<dim>384</dim>
					<dim>8</dim>
					<dim>8</dim>
				</port>
			</output>
			<blobs>
				<weights offset="47992192" size="1769472"/>
				<biases offset="49761664" size="1536"/>
			</blobs>
		</layer>
		<layer id="180" name="inception_v3/activation_80/Relu" precision="FP32" type="ReLU">
			<input>
				<port id="0">
					<dim>32</dim>
					<dim>384</dim>
					<dim>8</dim>
					<dim>8</dim>
				</port>
			</input>
			<output>
				<port id="1">
					<dim>32</dim>
					<dim>384</dim>
					<dim>8</dim>
					<dim>8</dim>
				</port>
			</output>
		</layer>
		<layer id="181" name="inception_v3/mixed9_0/concat" precision="FP32" type="Concat">
			<data axis="1"/>
			<input>
				<port id="0">
					<dim>32</dim>
					<dim>384</dim>
					<dim>8</dim>
					<dim>8</dim>
				</port>
				<port id="1">
					<dim>32</dim>
					<dim>384</dim>
					<dim>8</dim>
					<dim>8</dim>
				</port>
			</input>
			<output>
				<port id="2">
					<dim>32</dim>
					<dim>768</dim>
					<dim>8</dim>
					<dim>8</dim>
				</port>
			</output>
		</layer>
		<layer id="182" name="inception_v3/conv2d_81/convolution" precision="FP32" type="Convolution">
			<data auto_pad="same_upper" dilations="1,1" group="1" kernel="1,1" output="448" pads_begin="0,0" pads_end="0,0" strides="1,1"/>
			<input>
				<port id="0">
					<dim>32</dim>
					<dim>1280</dim>
					<dim>8</dim>
					<dim>8</dim>
				</port>
			</input>
			<output>
				<port id="3">
					<dim>32</dim>
					<dim>448</dim>
					<dim>8</dim>
					<dim>8</dim>
				</port>
			</output>
			<blobs>
				<weights offset="49763200" size="2293760"/>
				<biases offset="52056960" size="1792"/>
			</blobs>
		</layer>
		<layer id="183" name="inception_v3/activation_81/Relu" precision="FP32" type="ReLU">
			<input>
				<port id="0">
					<dim>32</dim>
					<dim>448</dim>
					<dim>8</dim>
					<dim>8</dim>
				</port>
			</input>
			<output>
				<port id="1">
					<dim>32</dim>
					<dim>448</dim>
					<dim>8</dim>
					<dim>8</dim>
				</port>
			</output>
		</layer>
		<layer id="184" name="inception_v3/conv2d_82/convolution" precision="FP32" type="Convolution">
			<data auto_pad="same_upper" dilations="1,1" group="1" kernel="3,3" output="384" pads_begin="1,1" pads_end="1,1" strides="1,1"/>
			<input>
				<port id="0">
					<dim>32</dim>
					<dim>448</dim>
					<dim>8</dim>
					<dim>8</dim>
				</port>
			</input>
			<output>
				<port id="3">
					<dim>32</dim>
					<dim>384</dim>
					<dim>8</dim>
					<dim>8</dim>
				</port>
			</output>
			<blobs>
				<weights offset="52058752" size="6193152"/>
				<biases offset="58251904" size="1536"/>
			</blobs>
		</layer>
		<layer id="185" name="inception_v3/activation_82/Relu" precision="FP32" type="ReLU">
			<input>
				<port id="0">
					<dim>32</dim>
					<dim>384</dim>
					<dim>8</dim>
					<dim>8</dim>
				</port>
			</input>
			<output>
				<port id="1">
					<dim>32</dim>
					<dim>384</dim>
					<dim>8</dim>
					<dim>8</dim>
				</port>
			</output>
		</layer>
		<layer id="186" name="inception_v3/conv2d_83/convolution" precision="FP32" type="Convolution">
			<data auto_pad="same_upper" dilations="1,1" group="1" kernel="1,3" output="384" pads_begin="0,1" pads_end="0,1" strides="1,1"/>
			<input>
				<port id="0">
					<dim>32</dim>
					<dim>384</dim>
					<dim>8</dim>
					<dim>8</dim>
				</port>
			</input>
			<output>
				<port id="3">
					<dim>32</dim>
					<dim>384</dim>
					<dim>8</dim>
					<dim>8</dim>
				</port>
			</output>
			<blobs>
				<weights offset="58253440" size="1769472"/>
				<biases offset="60022912" size="1536"/>
			</blobs>
		</layer>
		<layer id="187" name="inception_v3/activation_83/Relu" precision="FP32" type="ReLU">
			<input>
				<port id="0">
					<dim>32</dim>
					<dim>384</dim>
					<dim>8</dim>
					<dim>8</dim>
				</port>
			</input>
			<output>
				<port id="1">
					<dim>32</dim>
					<dim>384</dim>
					<dim>8</dim>
					<dim>8</dim>
				</port>
			</output>
		</layer>
		<layer id="188" name="inception_v3/conv2d_84/convolution" precision="FP32" type="Convolution">
			<data auto_pad="same_upper" dilations="1,1" group="1" kernel="3,1" output="384" pads_begin="1,0" pads_end="1,0" strides="1,1"/>
			<input>
				<port id="0">
					<dim>32</dim>
					<dim>384</dim>
					<dim>8</dim>
					<dim>8</dim>
				</port>
			</input>
			<output>
				<port id="3">
					<dim>32</dim>
					<dim>384</dim>
					<dim>8</dim>
					<dim>8</dim>
				</port>
			</output>
			<blobs>
				<weights offset="60024448" size="1769472"/>
				<biases offset="61793920" size="1536"/>
			</blobs>
		</layer>
		<layer id="189" name="inception_v3/activation_84/Relu" precision="FP32" type="ReLU">
			<input>
				<port id="0">
					<dim>32</dim>
					<dim>384</dim>
					<dim>8</dim>
					<dim>8</dim>
				</port>
			</input>
			<output>
				<port id="1">
					<dim>32</dim>
					<dim>384</dim>
					<dim>8</dim>
					<dim>8</dim>
				</port>
			</output>
		</layer>
		<layer id="190" name="inception_v3/concatenate_1/concat" precision="FP32" type="Concat">
			<data axis="1"/>
			<input>
				<port id="0">
					<dim>32</dim>
					<dim>384</dim>
					<dim>8</dim>
					<dim>8</dim>
				</port>
				<port id="1">
					<dim>32</dim>
					<dim>384</dim>
					<dim>8</dim>
					<dim>8</dim>
				</port>
			</input>
			<output>
				<port id="2">
					<dim>32</dim>
					<dim>768</dim>
					<dim>8</dim>
					<dim>8</dim>
				</port>
			</output>
		</layer>
		<layer id="191" name="inception_v3/average_pooling2d_8/AvgPool" precision="FP32" type="Pooling">
			<data auto_pad="same_upper" exclude-pad="true" kernel="3,3" pads_begin="1,1" pads_end="1,1" pool-method="avg" strides="1,1"/>
			<input>
				<port id="0">
					<dim>32</dim>
					<dim>1280</dim>
					<dim>8</dim>
					<dim>8</dim>
				</port>
			</input>
			<output>
				<port id="1">
					<dim>32</dim>
					<dim>1280</dim>
					<dim>8</dim>
					<dim>8</dim>
				</port>
			</output>
		</layer>
		<layer id="192" name="inception_v3/conv2d_85/convolution" precision="FP32" type="Convolution">
			<data auto_pad="same_upper" dilations="1,1" group="1" kernel="1,1" output="192" pads_begin="0,0" pads_end="0,0" strides="1,1"/>
			<input>
				<port id="0">
					<dim>32</dim>
					<dim>1280</dim>
					<dim>8</dim>
					<dim>8</dim>
				</port>
			</input>
			<output>
				<port id="3">
					<dim>32</dim>
					<dim>192</dim>
					<dim>8</dim>
					<dim>8</dim>
				</port>
			</output>
			<blobs>
				<weights offset="61795456" size="983040"/>
				<biases offset="62778496" size="768"/>
			</blobs>
		</layer>
		<layer id="193" name="inception_v3/activation_85/Relu" precision="FP32" type="ReLU">
			<input>
				<port id="0">
					<dim>32</dim>
					<dim>192</dim>
					<dim>8</dim>
					<dim>8</dim>
				</port>
			</input>
			<output>
				<port id="1">
					<dim>32</dim>
					<dim>192</dim>
					<dim>8</dim>
					<dim>8</dim>
				</port>
			</output>
		</layer>
		<layer id="194" name="inception_v3/mixed9/concat" precision="FP32" type="Concat">
			<data axis="1"/>
			<input>
				<port id="0">
					<dim>32</dim>
					<dim>320</dim>
					<dim>8</dim>
					<dim>8</dim>
				</port>
				<port id="1">
					<dim>32</dim>
					<dim>768</dim>
					<dim>8</dim>
					<dim>8</dim>
				</port>
				<port id="2">
					<dim>32</dim>
					<dim>768</dim>
					<dim>8</dim>
					<dim>8</dim>
				</port>
				<port id="3">
					<dim>32</dim>
					<dim>192</dim>
					<dim>8</dim>
					<dim>8</dim>
				</port>
			</input>
			<output>
				<port id="4">
					<dim>32</dim>
					<dim>2048</dim>
					<dim>8</dim>
					<dim>8</dim>
				</port>
			</output>
		</layer>
		<layer id="195" name="inception_v3/conv2d_86/convolution" precision="FP32" type="Convolution">
			<data auto_pad="same_upper" dilations="1,1" group="1" kernel="1,1" output="320" pads_begin="0,0" pads_end="0,0" strides="1,1"/>
			<input>
				<port id="0">
					<dim>32</dim>
					<dim>2048</dim>
					<dim>8</dim>
					<dim>8</dim>
				</port>
			</input>
			<output>
				<port id="3">
					<dim>32</dim>
					<dim>320</dim>
					<dim>8</dim>
					<dim>8</dim>
				</port>
			</output>
			<blobs>
				<weights offset="62779264" size="2621440"/>
				<biases offset="65400704" size="1280"/>
			</blobs>
		</layer>
		<layer id="196" name="inception_v3/activation_86/Relu" precision="FP32" type="ReLU">
			<input>
				<port id="0">
					<dim>32</dim>
					<dim>320</dim>
					<dim>8</dim>
					<dim>8</dim>
				</port>
			</input>
			<output>
				<port id="1">
					<dim>32</dim>
					<dim>320</dim>
					<dim>8</dim>
					<dim>8</dim>
				</port>
			</output>
		</layer>
		<layer id="197" name="inception_v3/conv2d_87/convolution" precision="FP32" type="Convolution">
			<data auto_pad="same_upper" dilations="1,1" group="1" kernel="1,1" output="384" pads_begin="0,0" pads_end="0,0" strides="1,1"/>
			<input>
				<port id="0">
					<dim>32</dim>
					<dim>2048</dim>
					<dim>8</dim>
					<dim>8</dim>
				</port>
			</input>
			<output>
				<port id="3">
					<dim>32</dim>
					<dim>384</dim>
					<dim>8</dim>
					<dim>8</dim>
				</port>
			</output>
			<blobs>
				<weights offset="65401984" size="3145728"/>
				<biases offset="68547712" size="1536"/>
			</blobs>
		</layer>
		<layer id="198" name="inception_v3/activation_87/Relu" precision="FP32" type="ReLU">
			<input>
				<port id="0">
					<dim>32</dim>
					<dim>384</dim>
					<dim>8</dim>
					<dim>8</dim>
				</port>
			</input>
			<output>
				<port id="1">
					<dim>32</dim>
					<dim>384</dim>
					<dim>8</dim>
					<dim>8</dim>
				</port>
			</output>
		</layer>
		<layer id="199" name="inception_v3/conv2d_88/convolution" precision="FP32" type="Convolution">
			<data auto_pad="same_upper" dilations="1,1" group="1" kernel="1,3" output="384" pads_begin="0,1" pads_end="0,1" strides="1,1"/>
			<input>
				<port id="0">
					<dim>32</dim>
					<dim>384</dim>
					<dim>8</dim>
					<dim>8</dim>
				</port>
			</input>
			<output>
				<port id="3">
					<dim>32</dim>
					<dim>384</dim>
					<dim>8</dim>
					<dim>8</dim>
				</port>
			</output>
			<blobs>
				<weights offset="68549248" size="1769472"/>
				<biases offset="70318720" size="1536"/>
			</blobs>
		</layer>
		<layer id="200" name="inception_v3/activation_88/Relu" precision="FP32" type="ReLU">
			<input>
				<port id="0">
					<dim>32</dim>
					<dim>384</dim>
					<dim>8</dim>
					<dim>8</dim>
				</port>
			</input>
			<output>
				<port id="1">
					<dim>32</dim>
					<dim>384</dim>
					<dim>8</dim>
					<dim>8</dim>
				</port>
			</output>
		</layer>
		<layer id="201" name="inception_v3/conv2d_89/convolution" precision="FP32" type="Convolution">
			<data auto_pad="same_upper" dilations="1,1" group="1" kernel="3,1" output="384" pads_begin="1,0" pads_end="1,0" strides="1,1"/>
			<input>
				<port id="0">
					<dim>32</dim>
					<dim>384</dim>
					<dim>8</dim>
					<dim>8</dim>
				</port>
			</input>
			<output>
				<port id="3">
					<dim>32</dim>
					<dim>384</dim>
					<dim>8</dim>
					<dim>8</dim>
				</port>
			</output>
			<blobs>
				<weights offset="70320256" size="1769472"/>
				<biases offset="72089728" size="1536"/>
			</blobs>
		</layer>
		<layer id="202" name="inception_v3/activation_89/Relu" precision="FP32" type="ReLU">
			<input>
				<port id="0">
					<dim>32</dim>
					<dim>384</dim>
					<dim>8</dim>
					<dim>8</dim>
				</port>
			</input>
			<output>
				<port id="1">
					<dim>32</dim>
					<dim>384</dim>
					<dim>8</dim>
					<dim>8</dim>
				</port>
			</output>
		</layer>
		<layer id="203" name="inception_v3/mixed9_1/concat" precision="FP32" type="Concat">
			<data axis="1"/>
			<input>
				<port id="0">
					<dim>32</dim>
					<dim>384</dim>
					<dim>8</dim>
					<dim>8</dim>
				</port>
				<port id="1">
					<dim>32</dim>
					<dim>384</dim>
					<dim>8</dim>
					<dim>8</dim>
				</port>
			</input>
			<output>
				<port id="2">
					<dim>32</dim>
					<dim>768</dim>
					<dim>8</dim>
					<dim>8</dim>
				</port>
			</output>
		</layer>
		<layer id="204" name="inception_v3/conv2d_90/convolution" precision="FP32" type="Convolution">
			<data auto_pad="same_upper" dilations="1,1" group="1" kernel="1,1" output="448" pads_begin="0,0" pads_end="0,0" strides="1,1"/>
			<input>
				<port id="0">
					<dim>32</dim>
					<dim>2048</dim>
					<dim>8</dim>
					<dim>8</dim>
				</port>
			</input>
			<output>
				<port id="3">
					<dim>32</dim>
					<dim>448</dim>
					<dim>8</dim>
					<dim>8</dim>
				</port>
			</output>
			<blobs>
				<weights offset="72091264" size="3670016"/>
				<biases offset="75761280" size="1792"/>
			</blobs>
		</layer>
		<layer id="205" name="inception_v3/activation_90/Relu" precision="FP32" type="ReLU">
			<input>
				<port id="0">
					<dim>32</dim>
					<dim>448</dim>
					<dim>8</dim>
					<dim>8</dim>
				</port>
			</input>
			<output>
				<port id="1">
					<dim>32</dim>
					<dim>448</dim>
					<dim>8</dim>
					<dim>8</dim>
				</port>
			</output>
		</layer>
		<layer id="206" name="inception_v3/conv2d_91/convolution" precision="FP32" type="Convolution">
			<data auto_pad="same_upper" dilations="1,1" group="1" kernel="3,3" output="384" pads_begin="1,1" pads_end="1,1" strides="1,1"/>
			<input>
				<port id="0">
					<dim>32</dim>
					<dim>448</dim>
					<dim>8</dim>
					<dim>8</dim>
				</port>
			</input>
			<output>
				<port id="3">
					<dim>32</dim>
					<dim>384</dim>
					<dim>8</dim>
					<dim>8</dim>
				</port>
			</output>
			<blobs>
				<weights offset="75763072" size="6193152"/>
				<biases offset="81956224" size="1536"/>
			</blobs>
		</layer>
		<layer id="207" name="inception_v3/activation_91/Relu" precision="FP32" type="ReLU">
			<input>
				<port id="0">
					<dim>32</dim>
					<dim>384</dim>
					<dim>8</dim>
					<dim>8</dim>
				</port>
			</input>
			<output>
				<port id="1">
					<dim>32</dim>
					<dim>384</dim>
					<dim>8</dim>
					<dim>8</dim>
				</port>
			</output>
		</layer>
		<layer id="208" name="inception_v3/conv2d_92/convolution" precision="FP32" type="Convolution">
			<data auto_pad="same_upper" dilations="1,1" group="1" kernel="1,3" output="384" pads_begin="0,1" pads_end="0,1" strides="1,1"/>
			<input>
				<port id="0">
					<dim>32</dim>
					<dim>384</dim>
					<dim>8</dim>
					<dim>8</dim>
				</port>
			</input>
			<output>
				<port id="3">
					<dim>32</dim>
					<dim>384</dim>
					<dim>8</dim>
					<dim>8</dim>
				</port>
			</output>
			<blobs>
				<weights offset="81957760" size="1769472"/>
				<biases offset="83727232" size="1536"/>
			</blobs>
		</layer>
		<layer id="209" name="inception_v3/activation_92/Relu" precision="FP32" type="ReLU">
			<input>
				<port id="0">
					<dim>32</dim>
					<dim>384</dim>
					<dim>8</dim>
					<dim>8</dim>
				</port>
			</input>
			<output>
				<port id="1">
					<dim>32</dim>
					<dim>384</dim>
					<dim>8</dim>
					<dim>8</dim>
				</port>
			</output>
		</layer>
		<layer id="210" name="inception_v3/conv2d_93/convolution" precision="FP32" type="Convolution">
			<data auto_pad="same_upper" dilations="1,1" group="1" kernel="3,1" output="384" pads_begin="1,0" pads_end="1,0" strides="1,1"/>
			<input>
				<port id="0">
					<dim>32</dim>
					<dim>384</dim>
					<dim>8</dim>
					<dim>8</dim>
				</port>
			</input>
			<output>
				<port id="3">
					<dim>32</dim>
					<dim>384</dim>
					<dim>8</dim>
					<dim>8</dim>
				</port>
			</output>
			<blobs>
				<weights offset="83728768" size="1769472"/>
				<biases offset="85498240" size="1536"/>
			</blobs>
		</layer>
		<layer id="211" name="inception_v3/activation_93/Relu" precision="FP32" type="ReLU">
			<input>
				<port id="0">
					<dim>32</dim>
					<dim>384</dim>
					<dim>8</dim>
					<dim>8</dim>
				</port>
			</input>
			<output>
				<port id="1">
					<dim>32</dim>
					<dim>384</dim>
					<dim>8</dim>
					<dim>8</dim>
				</port>
			</output>
		</layer>
		<layer id="212" name="inception_v3/concatenate_2/concat" precision="FP32" type="Concat">
			<data axis="1"/>
			<input>
				<port id="0">
					<dim>32</dim>
					<dim>384</dim>
					<dim>8</dim>
					<dim>8</dim>
				</port>
				<port id="1">
					<dim>32</dim>
					<dim>384</dim>
					<dim>8</dim>
					<dim>8</dim>
				</port>
			</input>
			<output>
				<port id="2">
					<dim>32</dim>
					<dim>768</dim>
					<dim>8</dim>
					<dim>8</dim>
				</port>
			</output>
		</layer>
		<layer id="213" name="inception_v3/average_pooling2d_9/AvgPool" precision="FP32" type="Pooling">
			<data auto_pad="same_upper" exclude-pad="true" kernel="3,3" pads_begin="1,1" pads_end="1,1" pool-method="avg" strides="1,1"/>
			<input>
				<port id="0">
					<dim>32</dim>
					<dim>2048</dim>
					<dim>8</dim>
					<dim>8</dim>
				</port>
			</input>
			<output>
				<port id="1">
					<dim>32</dim>
					<dim>2048</dim>
					<dim>8</dim>
					<dim>8</dim>
				</port>
			</output>
		</layer>
		<layer id="214" name="inception_v3/conv2d_94/convolution" precision="FP32" type="Convolution">
			<data auto_pad="same_upper" dilations="1,1" group="1" kernel="1,1" output="192" pads_begin="0,0" pads_end="0,0" strides="1,1"/>
			<input>
				<port id="0">
					<dim>32</dim>
					<dim>2048</dim>
					<dim>8</dim>
					<dim>8</dim>
				</port>
			</input>
			<output>
				<port id="3">
					<dim>32</dim>
					<dim>192</dim>
					<dim>8</dim>
					<dim>8</dim>
				</port>
			</output>
			<blobs>
				<weights offset="85499776" size="1572864"/>
				<biases offset="87072640" size="768"/>
			</blobs>
		</layer>
		<layer id="215" name="inception_v3/activation_94/Relu" precision="FP32" type="ReLU">
			<input>
				<port id="0">
					<dim>32</dim>
					<dim>192</dim>
					<dim>8</dim>
					<dim>8</dim>
				</port>
			</input>
			<output>
				<port id="1">
					<dim>32</dim>
					<dim>192</dim>
					<dim>8</dim>
					<dim>8</dim>
				</port>
			</output>
		</layer>
		<layer id="216" name="inception_v3/mixed10/concat" precision="FP32" type="Concat">
			<data axis="1"/>
			<input>
				<port id="0">
					<dim>32</dim>
					<dim>320</dim>
					<dim>8</dim>
					<dim>8</dim>
				</port>
				<port id="1">
					<dim>32</dim>
					<dim>768</dim>
					<dim>8</dim>
					<dim>8</dim>
				</port>
				<port id="2">
					<dim>32</dim>
					<dim>768</dim>
					<dim>8</dim>
					<dim>8</dim>
				</port>
				<port id="3">
					<dim>32</dim>
					<dim>192</dim>
					<dim>8</dim>
					<dim>8</dim>
				</port>
			</input>
			<output>
				<port id="4">
					<dim>32</dim>
					<dim>2048</dim>
					<dim>8</dim>
					<dim>8</dim>
				</port>
			</output>
		</layer>
		<layer id="217" name="20491_const" precision="I32" type="Const">
			<output>
				<port id="1">
					<dim>4</dim>
				</port>
			</output>
			<blobs>
				<custom offset="87073408" size="16"/>
			</blobs>
		</layer>
		<layer id="218" name="global_average_pooling2d_1/Mean/Reshape" precision="FP32" type="Reshape">
			<input>
				<port id="0">
					<dim>32</dim>
					<dim>2048</dim>
					<dim>8</dim>
					<dim>8</dim>
				</port>
				<port id="1">
					<dim>4</dim>
				</port>
			</input>
			<output>
				<port id="2">
					<dim>32</dim>
					<dim>2048</dim>
					<dim>64</dim>
					<dim>1</dim>
				</port>
			</output>
		</layer>
		<layer id="219" name="global_average_pooling2d_1/Mean/Pool" precision="FP32" type="Pooling">
			<data exclude-pad="false" kernel="64,1" pads_begin="0,0" pads_end="0,0" pool-method="avg" strides="1,1"/>
			<input>
				<port id="0">
					<dim>32</dim>
					<dim>2048</dim>
					<dim>64</dim>
					<dim>1</dim>
				</port>
			</input>
			<output>
				<port id="1">
					<dim>32</dim>
					<dim>2048</dim>
					<dim>1</dim>
					<dim>1</dim>
				</port>
			</output>
		</layer>
		<layer id="220" name="20493_const" precision="I32" type="Const">
			<output>
				<port id="1">
					<dim>2</dim>
				</port>
			</output>
			<blobs>
				<custom offset="87073424" size="8"/>
			</blobs>
		</layer>
		<layer id="221" name="global_average_pooling2d_1/Mean/FinalReshape" precision="FP32" type="Reshape">
			<input>
				<port id="0">
					<dim>32</dim>
					<dim>2048</dim>
					<dim>1</dim>
					<dim>1</dim>
				</port>
				<port id="1">
					<dim>2</dim>
				</port>
			</input>
			<output>
				<port id="2">
					<dim>32</dim>
					<dim>2048</dim>
				</port>
			</output>
		</layer>
		<layer id="222" name="dense_1/MatMul" precision="FP32" type="FullyConnected">
			<data out-size="1024"/>
			<input>
				<port id="0">
					<dim>32</dim>
					<dim>2048</dim>
				</port>
			</input>
			<output>
				<port id="3">
					<dim>32</dim>
					<dim>1024</dim>
				</port>
			</output>
			<blobs>
				<weights offset="87073432" size="8388608"/>
				<biases offset="95462040" size="4096"/>
			</blobs>
		</layer>
		<layer id="223" name="dense_1/Relu" precision="FP32" type="ReLU">
			<input>
				<port id="0">
					<dim>32</dim>
					<dim>1024</dim>
				</port>
			</input>
			<output>
				<port id="1">
					<dim>32</dim>
					<dim>1024</dim>
				</port>
			</output>
		</layer>
		<layer id="224" name="dense_2/MatMul" precision="FP32" type="FullyConnected">
			<data out-size="6"/>
			<input>
				<port id="0">
					<dim>32</dim>
					<dim>1024</dim>
				</port>
			</input>
			<output>
				<port id="3">
					<dim>32</dim>
					<dim>6</dim>
				</port>
			</output>
			<blobs>
				<weights offset="95466136" size="24576"/>
				<biases offset="95490712" size="24"/>
			</blobs>
		</layer>
		<layer id="225" name="dense_2/Softmax" precision="FP32" type="SoftMax">
			<data axis="1"/>
			<input>
				<port id="0">
					<dim>32</dim>
					<dim>6</dim>
				</port>
			</input>
			<output>
				<port id="1">
					<dim>32</dim>
					<dim>6</dim>
				</port>
			</output>
		</layer>
	</layers>
	<edges>
		<edge from-layer="0" from-port="0" to-layer="1" to-port="0"/>
		<edge from-layer="1" from-port="3" to-layer="2" to-port="0"/>
		<edge from-layer="2" from-port="1" to-layer="3" to-port="0"/>
		<edge from-layer="3" from-port="3" to-layer="4" to-port="0"/>
		<edge from-layer="4" from-port="1" to-layer="5" to-port="0"/>
		<edge from-layer="5" from-port="3" to-layer="6" to-port="0"/>
		<edge from-layer="6" from-port="1" to-layer="7" to-port="0"/>
		<edge from-layer="7" from-port="1" to-layer="8" to-port="0"/>
		<edge from-layer="8" from-port="3" to-layer="9" to-port="0"/>
		<edge from-layer="9" from-port="1" to-layer="10" to-port="0"/>
		<edge from-layer="10" from-port="3" to-layer="11" to-port="0"/>
		<edge from-layer="11" from-port="1" to-layer="12" to-port="0"/>
		<edge from-layer="12" from-port="1" to-layer="13" to-port="0"/>
		<edge from-layer="13" from-port="3" to-layer="14" to-port="0"/>
		<edge from-layer="12" from-port="1" to-layer="15" to-port="0"/>
		<edge from-layer="15" from-port="3" to-layer="16" to-port="0"/>
		<edge from-layer="16" from-port="1" to-layer="17" to-port="0"/>
		<edge from-layer="17" from-port="3" to-layer="18" to-port="0"/>
		<edge from-layer="12" from-port="1" to-layer="19" to-port="0"/>
		<edge from-layer="19" from-port="3" to-layer="20" to-port="0"/>
		<edge from-layer="20" from-port="1" to-layer="21" to-port="0"/>
		<edge from-layer="21" from-port="3" to-layer="22" to-port="0"/>
		<edge from-layer="22" from-port="1" to-layer="23" to-port="0"/>
		<edge from-layer="23" from-port="3" to-layer="24" to-port="0"/>
		<edge from-layer="12" from-port="1" to-layer="25" to-port="0"/>
		<edge from-layer="25" from-port="1" to-layer="26" to-port="0"/>
		<edge from-layer="26" from-port="3" to-layer="27" to-port="0"/>
		<edge from-layer="14" from-port="1" to-layer="28" to-port="0"/>
		<edge from-layer="18" from-port="1" to-layer="28" to-port="1"/>
		<edge from-layer="24" from-port="1" to-layer="28" to-port="2"/>
		<edge from-layer="27" from-port="1" to-layer="28" to-port="3"/>
		<edge from-layer="28" from-port="4" to-layer="29" to-port="0"/>
		<edge from-layer="29" from-port="3" to-layer="30" to-port="0"/>
		<edge from-layer="28" from-port="4" to-layer="31" to-port="0"/>
		<edge from-layer="31" from-port="3" to-layer="32" to-port="0"/>
		<edge from-layer="32" from-port="1" to-layer="33" to-port="0"/>
		<edge from-layer="33" from-port="3" to-layer="34" to-port="0"/>
		<edge from-layer="28" from-port="4" to-layer="35" to-port="0"/>
		<edge from-layer="35" from-port="3" to-layer="36" to-port="0"/>
		<edge from-layer="36" from-port="1" to-layer="37" to-port="0"/>
		<edge from-layer="37" from-port="3" to-layer="38" to-port="0"/>
		<edge from-layer="38" from-port="1" to-layer="39" to-port="0"/>
		<edge from-layer="39" from-port="3" to-layer="40" to-port="0"/>
		<edge from-layer="28" from-port="4" to-layer="41" to-port="0"/>
		<edge from-layer="41" from-port="1" to-layer="42" to-port="0"/>
		<edge from-layer="42" from-port="3" to-layer="43" to-port="0"/>
		<edge from-layer="30" from-port="1" to-layer="44" to-port="0"/>
		<edge from-layer="34" from-port="1" to-layer="44" to-port="1"/>
		<edge from-layer="40" from-port="1" to-layer="44" to-port="2"/>
		<edge from-layer="43" from-port="1" to-layer="44" to-port="3"/>
		<edge from-layer="44" from-port="4" to-layer="45" to-port="0"/>
		<edge from-layer="45" from-port="3" to-layer="46" to-port="0"/>
		<edge from-layer="44" from-port="4" to-layer="47" to-port="0"/>
		<edge from-layer="47" from-port="3" to-layer="48" to-port="0"/>
		<edge from-layer="48" from-port="1" to-layer="49" to-port="0"/>
		<edge from-layer="49" from-port="3" to-layer="50" to-port="0"/>
		<edge from-layer="44" from-port="4" to-layer="51" to-port="0"/>
		<edge from-layer="51" from-port="3" to-layer="52" to-port="0"/>
		<edge from-layer="52" from-port="1" to-layer="53" to-port="0"/>
		<edge from-layer="53" from-port="3" to-layer="54" to-port="0"/>
		<edge from-layer="54" from-port="1" to-layer="55" to-port="0"/>
		<edge from-layer="55" from-port="3" to-layer="56" to-port="0"/>
		<edge from-layer="44" from-port="4" to-layer="57" to-port="0"/>
		<edge from-layer="57" from-port="1" to-layer="58" to-port="0"/>
		<edge from-layer="58" from-port="3" to-layer="59" to-port="0"/>
		<edge from-layer="46" from-port="1" to-layer="60" to-port="0"/>
		<edge from-layer="50" from-port="1" to-layer="60" to-port="1"/>
		<edge from-layer="56" from-port="1" to-layer="60" to-port="2"/>
		<edge from-layer="59" from-port="1" to-layer="60" to-port="3"/>
		<edge from-layer="60" from-port="4" to-layer="61" to-port="0"/>
		<edge from-layer="61" from-port="3" to-layer="62" to-port="0"/>
		<edge from-layer="60" from-port="4" to-layer="63" to-port="0"/>
		<edge from-layer="63" from-port="3" to-layer="64" to-port="0"/>
		<edge from-layer="64" from-port="1" to-layer="65" to-port="0"/>
		<edge from-layer="65" from-port="3" to-layer="66" to-port="0"/>
		<edge from-layer="66" from-port="1" to-layer="67" to-port="0"/>
		<edge from-layer="67" from-port="3" to-layer="68" to-port="0"/>
		<edge from-layer="60" from-port="4" to-layer="69" to-port="0"/>
		<edge from-layer="62" from-port="1" to-layer="70" to-port="0"/>
		<edge from-layer="68" from-port="1" to-layer="70" to-port="1"/>
		<edge from-layer="69" from-port="1" to-layer="70" to-port="2"/>
		<edge from-layer="70" from-port="3" to-layer="71" to-port="0"/>
		<edge from-layer="71" from-port="3" to-layer="72" to-port="0"/>
		<edge from-layer="70" from-port="3" to-layer="73" to-port="0"/>
		<edge from-layer="73" from-port="3" to-layer="74" to-port="0"/>
		<edge from-layer="74" from-port="1" to-layer="75" to-port="0"/>
		<edge from-layer="75" from-port="3" to-layer="76" to-port="0"/>
		<edge from-layer="76" from-port="1" to-layer="77" to-port="0"/>
		<edge from-layer="77" from-port="3" to-layer="78" to-port="0"/>
		<edge from-layer="70" from-port="3" to-layer="79" to-port="0"/>
		<edge from-layer="79" from-port="3" to-layer="80" to-port="0"/>
		<edge from-layer="80" from-port="1" to-layer="81" to-port="0"/>
		<edge from-layer="81" from-port="3" to-layer="82" to-port="0"/>
		<edge from-layer="82" from-port="1" to-layer="83" to-port="0"/>
		<edge from-layer="83" from-port="3" to-layer="84" to-port="0"/>
		<edge from-layer="84" from-port="1" to-layer="85" to-port="0"/>
		<edge from-layer="85" from-port="3" to-layer="86" to-port="0"/>
		<edge from-layer="86" from-port="1" to-layer="87" to-port="0"/>
		<edge from-layer="87" from-port="3" to-layer="88" to-port="0"/>
		<edge from-layer="70" from-port="3" to-layer="89" to-port="0"/>
		<edge from-layer="89" from-port="1" to-layer="90" to-port="0"/>
		<edge from-layer="90" from-port="3" to-layer="91" to-port="0"/>
		<edge from-layer="72" from-port="1" to-layer="92" to-port="0"/>
		<edge from-layer="78" from-port="1" to-layer="92" to-port="1"/>
		<edge from-layer="88" from-port="1" to-layer="92" to-port="2"/>
		<edge from-layer="91" from-port="1" to-layer="92" to-port="3"/>
		<edge from-layer="92" from-port="4" to-layer="93" to-port="0"/>
		<edge from-layer="93" from-port="3" to-layer="94" to-port="0"/>
		<edge from-layer="92" from-port="4" to-layer="95" to-port="0"/>
		<edge from-layer="95" from-port="3" to-layer="96" to-port="0"/>
		<edge from-layer="96" from-port="1" to-layer="97" to-port="0"/>
		<edge from-layer="97" from-port="3" to-layer="98" to-port="0"/>
		<edge from-layer="98" from-port="1" to-layer="99" to-port="0"/>
		<edge from-layer="99" from-port="3" to-layer="100" to-port="0"/>
		<edge from-layer="92" from-port="4" to-layer="101" to-port="0"/>
		<edge from-layer="101" from-port="3" to-layer="102" to-port="0"/>
		<edge from-layer="102" from-port="1" to-layer="103" to-port="0"/>
		<edge from-layer="103" from-port="3" to-layer="104" to-port="0"/>
		<edge from-layer="104" from-port="1" to-layer="105" to-port="0"/>
		<edge from-layer="105" from-port="3" to-layer="106" to-port="0"/>
		<edge from-layer="106" from-port="1" to-layer="107" to-port="0"/>
		<edge from-layer="107" from-port="3" to-layer="108" to-port="0"/>
		<edge from-layer="108" from-port="1" to-layer="109" to-port="0"/>
		<edge from-layer="109" from-port="3" to-layer="110" to-port="0"/>
		<edge from-layer="92" from-port="4" to-layer="111" to-port="0"/>
		<edge from-layer="111" from-port="1" to-layer="112" to-port="0"/>
		<edge from-layer="112" from-port="3" to-layer="113" to-port="0"/>
		<edge from-layer="94" from-port="1" to-layer="114" to-port="0"/>
		<edge from-layer="100" from-port="1" to-layer="114" to-port="1"/>
		<edge from-layer="110" from-port="1" to-layer="114" to-port="2"/>
		<edge from-layer="113" from-port="1" to-layer="114" to-port="3"/>
		<edge from-layer="114" from-port="4" to-layer="115" to-port="0"/>
		<edge from-layer="115" from-port="3" to-layer="116" to-port="0"/>
		<edge from-layer="114" from-port="4" to-layer="117" to-port="0"/>
		<edge from-layer="117" from-port="3" to-layer="118" to-port="0"/>
		<edge from-layer="118" from-port="1" to-layer="119" to-port="0"/>
		<edge from-layer="119" from-port="3" to-layer="120" to-port="0"/>
		<edge from-layer="120" from-port="1" to-layer="121" to-port="0"/>
		<edge from-layer="121" from-port="3" to-layer="122" to-port="0"/>
		<edge from-layer="114" from-port="4" to-layer="123" to-port="0"/>
		<edge from-layer="123" from-port="3" to-layer="124" to-port="0"/>
		<edge from-layer="124" from-port="1" to-layer="125" to-port="0"/>
		<edge from-layer="125" from-port="3" to-layer="126" to-port="0"/>
		<edge from-layer="126" from-port="1" to-layer="127" to-port="0"/>
		<edge from-layer="127" from-port="3" to-layer="128" to-port="0"/>
		<edge from-layer="128" from-port="1" to-layer="129" to-port="0"/>
		<edge from-layer="129" from-port="3" to-layer="130" to-port="0"/>
		<edge from-layer="130" from-port="1" to-layer="131" to-port="0"/>
		<edge from-layer="131" from-port="3" to-layer="132" to-port="0"/>
		<edge from-layer="114" from-port="4" to-layer="133" to-port="0"/>
		<edge from-layer="133" from-port="1" to-layer="134" to-port="0"/>
		<edge from-layer="134" from-port="3" to-layer="135" to-port="0"/>
		<edge from-layer="116" from-port="1" to-layer="136" to-port="0"/>
		<edge from-layer="122" from-port="1" to-layer="136" to-port="1"/>
		<edge from-layer="132" from-port="1" to-layer="136" to-port="2"/>
		<edge from-layer="135" from-port="1" to-layer="136" to-port="3"/>
		<edge from-layer="136" from-port="4" to-layer="137" to-port="0"/>
		<edge from-layer="137" from-port="3" to-layer="138" to-port="0"/>
		<edge from-layer="136" from-port="4" to-layer="139" to-port="0"/>
		<edge from-layer="139" from-port="3" to-layer="140" to-port="0"/>
		<edge from-layer="140" from-port="1" to-layer="141" to-port="0"/>
		<edge from-layer="141" from-port="3" to-layer="142" to-port="0"/>
		<edge from-layer="142" from-port="1" to-layer="143" to-port="0"/>
		<edge from-layer="143" from-port="3" to-layer="144" to-port="0"/>
		<edge from-layer="136" from-port="4" to-layer="145" to-port="0"/>
		<edge from-layer="145" from-port="3" to-layer="146" to-port="0"/>
		<edge from-layer="146" from-port="1" to-layer="147" to-port="0"/>
		<edge from-layer="147" from-port="3" to-layer="148" to-port="0"/>
		<edge from-layer="148" from-port="1" to-layer="149" to-port="0"/>
		<edge from-layer="149" from-port="3" to-layer="150" to-port="0"/>
		<edge from-layer="150" from-port="1" to-layer="151" to-port="0"/>
		<edge from-layer="151" from-port="3" to-layer="152" to-port="0"/>
		<edge from-layer="152" from-port="1" to-layer="153" to-port="0"/>
		<edge from-layer="153" from-port="3" to-layer="154" to-port="0"/>
		<edge from-layer="136" from-port="4" to-layer="155" to-port="0"/>
		<edge from-layer="155" from-port="1" to-layer="156" to-port="0"/>
		<edge from-layer="156" from-port="3" to-layer="157" to-port="0"/>
		<edge from-layer="138" from-port="1" to-layer="158" to-port="0"/>
		<edge from-layer="144" from-port="1" to-layer="158" to-port="1"/>
		<edge from-layer="154" from-port="1" to-layer="158" to-port="2"/>
		<edge from-layer="157" from-port="1" to-layer="158" to-port="3"/>
		<edge from-layer="158" from-port="4" to-layer="159" to-port="0"/>
		<edge from-layer="159" from-port="3" to-layer="160" to-port="0"/>
		<edge from-layer="160" from-port="1" to-layer="161" to-port="0"/>
		<edge from-layer="161" from-port="3" to-layer="162" to-port="0"/>
		<edge from-layer="158" from-port="4" to-layer="163" to-port="0"/>
		<edge from-layer="163" from-port="3" to-layer="164" to-port="0"/>
		<edge from-layer="164" from-port="1" to-layer="165" to-port="0"/>
		<edge from-layer="165" from-port="3" to-layer="166" to-port="0"/>
		<edge from-layer="166" from-port="1" to-layer="167" to-port="0"/>
		<edge from-layer="167" from-port="3" to-layer="168" to-port="0"/>
		<edge from-layer="168" from-port="1" to-layer="169" to-port="0"/>
		<edge from-layer="169" from-port="3" to-layer="170" to-port="0"/>
		<edge from-layer="158" from-port="4" to-layer="171" to-port="0"/>
		<edge from-layer="162" from-port="1" to-layer="172" to-port="0"/>
		<edge from-layer="170" from-port="1" to-layer="172" to-port="1"/>
		<edge from-layer="171" from-port="1" to-layer="172" to-port="2"/>
		<edge from-layer="172" from-port="3" to-layer="173" to-port="0"/>
		<edge from-layer="173" from-port="3" to-layer="174" to-port="0"/>
		<edge from-layer="172" from-port="3" to-layer="175" to-port="0"/>
		<edge from-layer="175" from-port="3" to-layer="176" to-port="0"/>
		<edge from-layer="176" from-port="1" to-layer="177" to-port="0"/>
		<edge from-layer="177" from-port="3" to-layer="178" to-port="0"/>
		<edge from-layer="176" from-port="1" to-layer="179" to-port="0"/>
		<edge from-layer="179" from-port="3" to-layer="180" to-port="0"/>
		<edge from-layer="178" from-port="1" to-layer="181" to-port="0"/>
		<edge from-layer="180" from-port="1" to-layer="181" to-port="1"/>
		<edge from-layer="172" from-port="3" to-layer="182" to-port="0"/>
		<edge from-layer="182" from-port="3" to-layer="183" to-port="0"/>
		<edge from-layer="183" from-port="1" to-layer="184" to-port="0"/>
		<edge from-layer="184" from-port="3" to-layer="185" to-port="0"/>
		<edge from-layer="185" from-port="1" to-layer="186" to-port="0"/>
		<edge from-layer="186" from-port="3" to-layer="187" to-port="0"/>
		<edge from-layer="185" from-port="1" to-layer="188" to-port="0"/>
		<edge from-layer="188" from-port="3" to-layer="189" to-port="0"/>
		<edge from-layer="187" from-port="1" to-layer="190" to-port="0"/>
		<edge from-layer="189" from-port="1" to-layer="190" to-port="1"/>
		<edge from-layer="172" from-port="3" to-layer="191" to-port="0"/>
		<edge from-layer="191" from-port="1" to-layer="192" to-port="0"/>
		<edge from-layer="192" from-port="3" to-layer="193" to-port="0"/>
		<edge from-layer="174" from-port="1" to-layer="194" to-port="0"/>
		<edge from-layer="181" from-port="2" to-layer="194" to-port="1"/>
		<edge from-layer="190" from-port="2" to-layer="194" to-port="2"/>
		<edge from-layer="193" from-port="1" to-layer="194" to-port="3"/>
		<edge from-layer="194" from-port="4" to-layer="195" to-port="0"/>
		<edge from-layer="195" from-port="3" to-layer="196" to-port="0"/>
		<edge from-layer="194" from-port="4" to-layer="197" to-port="0"/>
		<edge from-layer="197" from-port="3" to-layer="198" to-port="0"/>
		<edge from-layer="198" from-port="1" to-layer="199" to-port="0"/>
		<edge from-layer="199" from-port="3" to-layer="200" to-port="0"/>
		<edge from-layer="198" from-port="1" to-layer="201" to-port="0"/>
		<edge from-layer="201" from-port="3" to-layer="202" to-port="0"/>
		<edge from-layer="200" from-port="1" to-layer="203" to-port="0"/>
		<edge from-layer="202" from-port="1" to-layer="203" to-port="1"/>
		<edge from-layer="194" from-port="4" to-layer="204" to-port="0"/>
		<edge from-layer="204" from-port="3" to-layer="205" to-port="0"/>
		<edge from-layer="205" from-port="1" to-layer="206" to-port="0"/>
		<edge from-layer="206" from-port="3" to-layer="207" to-port="0"/>
		<edge from-layer="207" from-port="1" to-layer="208" to-port="0"/>
		<edge from-layer="208" from-port="3" to-layer="209" to-port="0"/>
		<edge from-layer="207" from-port="1" to-layer="210" to-port="0"/>
		<edge from-layer="210" from-port="3" to-layer="211" to-port="0"/>
		<edge from-layer="209" from-port="1" to-layer="212" to-port="0"/>
		<edge from-layer="211" from-port="1" to-layer="212" to-port="1"/>
		<edge from-layer="194" from-port="4" to-layer="213" to-port="0"/>
		<edge from-layer="213" from-port="1" to-layer="214" to-port="0"/>
		<edge from-layer="214" from-port="3" to-layer="215" to-port="0"/>
		<edge from-layer="196" from-port="1" to-layer="216" to-port="0"/>
		<edge from-layer="203" from-port="2" to-layer="216" to-port="1"/>
		<edge from-layer="212" from-port="2" to-layer="216" to-port="2"/>
		<edge from-layer="215" from-port="1" to-layer="216" to-port="3"/>
		<edge from-layer="216" from-port="4" to-layer="218" to-port="0"/>
		<edge from-layer="217" from-port="1" to-layer="218" to-port="1"/>
		<edge from-layer="218" from-port="2" to-layer="219" to-port="0"/>
		<edge from-layer="219" from-port="1" to-layer="221" to-port="0"/>
		<edge from-layer="220" from-port="1" to-layer="221" to-port="1"/>
		<edge from-layer="221" from-port="2" to-layer="222" to-port="0"/>
		<edge from-layer="222" from-port="3" to-layer="223" to-port="0"/>
		<edge from-layer="223" from-port="1" to-layer="224" to-port="0"/>
		<edge from-layer="224" from-port="3" to-layer="225" to-port="0"/>
	</edges>
	<meta_data>
		<MO_version value="2019.3.0-408-gac8584cb7"/>
		<cli_parameters>
			<batch value="32"/>
			<blobs_as_inputs value="False"/>
			<caffe_parser_path value="DIR"/>
			<data_type value="FP32"/>
			<disable_nhwc_to_nchw value="False"/>
			<disable_omitting_optional value="False"/>
			<disable_resnet_optimization value="False"/>
			<enable_concat_optimization value="False"/>
			<enable_flattening_nested_params value="False"/>
			<enable_ssd_gluoncv value="False"/>
			<extensions value="DIR"/>
			<framework value="tf"/>
			<freeze_placeholder_with_value value="{}"/>
			<generate_experimental_IR_V10 value="False"/>
			<input_model value="DIR\tf_classification_model.pb"/>
			<input_model_is_text value="False"/>
			<k value="DIR\CustomLayersMapping.xml"/>
			<keep_quantize_ops_in_IR value="False"/>
			<keep_shape_ops value="False"/>
			<legacy_mxnet_model value="False"/>
			<log_level value="ERROR"/>
			<mean_scale_values value="{}"/>
			<mean_values value="()"/>
			<move_to_preprocess value="False"/>
			<output_dir value="DIR"/>
			<remove_memory value="False"/>
			<remove_output_softmax value="False"/>
			<reverse_input_channels value="False"/>
			<save_params_from_nd value="False"/>
			<scale value="255.0"/>
			<scale_values value="()"/>
			<silent value="False"/>
			<steps value="False"/>
			<version value="False"/>
			<unset unset_cli_parameters="counts, disable_fusing, disable_gfusing, finegrain_fusing, generate_deprecated_IR_V2, input, input_checkpoint, input_meta_graph, input_proto, input_shape, input_symbol, mean_file, mean_file_offsets, model_name, nd_prefix_name, output, placeholder_shapes, pretrained_model_name, saved_model_dir, saved_model_tags, tensorboard_logdir, tensorflow_custom_layer_libraries, tensorflow_custom_operations_config_update, tensorflow_object_detection_api_pipeline_config, tensorflow_operation_patterns, tensorflow_subgraph_patterns, tensorflow_use_custom_operations_config"/>
		</cli_parameters>
	</meta_data>
</net>
